haepe.tflite (tflite, 151700 bytes, 9 tensors)

dense_3/bias f4 [200]
0	0x3c724b14	0.014788408
1	0xbc9c3bde	-0.019071516
2	0x3c6f9c38	0.014624648
3	0x3c70f85e	0.014707653
4	0x3c695aae	0.014242811
5	0xbc1c0f45	-0.009525125
6	0xbcaaaa13	-0.02083305
7	0xbbd3fe2d	-0.006469509
8	0xbc77be5a	-0.015121067
9	0x3c6fabd0	0.014628366
10	0x3c6c22f5	0.014412631
11	0xbbab5f2c	-0.005229851
12	0xbc611323	-0.013737473
13	0x3c68e961	0.014215798
14	0xbc520c05	-0.0128202485
15	0x3bb92868	0.0056505688
16	0x3c6cf00e	0.01446153
17	0xbc2dfdcc	-0.010619592
18	0xbc44651a	-0.011986995
19	0xbc6d1175	-0.014469494
20	0xbc4fae1c	-0.012675788
21	0x3b86a1f9	0.004108664
22	0x3c55493e	0.013017951
23	0xbc828ac1	-0.015935304
24	0x3c6f5de4	0.014609788
25	0xbc6f8ff5	-0.014621724
26	0xbc36d90c	-0.011160146
27	0x3c6bb9b1	0.014387534
28	0xbc83e94e	-0.01610246
29	0xbc4856fb	-0.012227769
30	0x3bb34e6b	0.0054719946
31	0x3c711233	0.014713812
32	0x00000000	0.0
33	0x3bb81513	0.0056177466
34	0xbc941e14	-0.018080749
35	0xbc43e7c9	-0.011957117
36	0x3c6fd8be	0.014639078
37	0xbc528524	-0.012849126
38	0x3c624cca	0.013812253
39	0x3c69a847	0.014261312
40	0x3c5f8f6c	0.013645034
41	0x3c4728e8	0.012155749
42	0xbc814128	-0.01577814
43	0xbbfdb29b	-0.0077422387
44	0xbca0448b	-0.019563934
45	0xbc57557b	-0.013142939
46	0xbc3a2f77	-0.011363856
47	0xbc1f58d5	-0.009725769
48	0xbc16d438	-0.00920587
49	0x3bed3a2d	0.007239601
50	0xbc9c0c48	-0.019048825
51	0x3c6301da	0.013855422
52	0xbc649a7c	-0.013952848
53	0x3c27a987	0.01023329
54	0xbc800bea	-0.015630681
55	0x3c4928eb	0.012277822
56	0xbc66c1e3	-0.014084312
57	0x3c09e832	0.008417176
58	0xbb632160	-0.0034657344
59	0xbc29d126	-0.010364806
60	0x3c43aa66	0.011942482
61	0x3c7132c4	0.014721576
62	0xbc3b3e2e	-0.011428399
63	0x3c6e375b	0.014539565
64	0x3c6d9a78	0.01450216
65	0xbc49261a	-0.0122771505
66	0x3c31ab23	0.010844025
67	0xbc6f1b90	-0.014593974
68	0xbbc0866d	-0.0058754
69	0x3c862301	0.016374113
70	0xbc41aaa1	-0.011820466
71	0x3c6542e3	0.013992998
72	0xbc8dfece	-0.017333414
73	0xbc70d438	-0.014699034
74	0x3c246397	0.01003351
75	0xbc1d3747	-0.009595699
76	0xbc589cc6	-0.013220971
77	0x3c552e77	0.013011566
78	0x3bbf233a	0.0058330568
79	0xbc820449	-0.015871184
80	0x3c70f7ac	0.014707487
81	0x3c6965ed	0.014245492
82	0xbcbbb3f4	-0.022912957
83	0x3c623ec3	0.013808909
84	0x3c5fbaa7	0.013655341
85	0x3c60181b	0.013677622
86	0x3c59a51a	0.013283992
87	0x3ba159fa	0.004924056
88	0x3c664576	0.014054647
89	0xbc84e319	-0.01622157
90	0xbc1d4fe1	-0.009601564
91	0xbc93beea	-0.01803537
92	0xbc82c0f8	-0.015961155
93	0x3c5ff435	0.013669063
94	0x3c6fa91b	0.01462772
95	0xbc2bc349	-0.010483571
96	0xbbc4c506	-0.0060049323
97	0x3c6fc175	0.014633526
98	0xbc55148f	-0.01300539
99	0xbc1a2ed8	-0.0094105825
100	0xbc986257	-0.01860158
101	0xbbb61257	-0.0055563855
102	0xbc4579c4	-0.012052957
103	0x3c23b9a1	0.009992988
104	0xbc5d723d	-0.013516006
105	0xbc67689d	-0.014124063
106	0xbc2c8c33	-0.010531473
107	0x3c2605b0	0.010133192
108	0xbc24f207	-0.010067469
109	0x3c73cbb2	0.014880108
110	0xbc863e4d	-0.01638713
111	0x3c6965e4	0.014245484
112	0x3bc47df4	0.00599646
113	0x3c66b000	0.014080048
114	0xbc165fbc	-0.009178098
115	0x3c6f4e61	0.014606089
116	0x3c66048d	0.014039171
117	0xbc4f757a	-0.012662286
118	0xbc12dd18	-0.008963846
119	0xbc9b8071	-0.018982144
120	0xbc5274eb	-0.012845258
121	0xbc7738d9	-0.015089237
122	0x3c2385ab	0.009980599
123	0xbc73f4ef	-0.01488994
124	0xbc417bcf	-0.011809303
125	0xbc38bf7b	-0.011276121
126	0x3c6dbb87	0.014510042
127	0xbc8caaf4	-0.01717136
128	0xbc6dadd5	-0.014506777
129	0x00000000	0.0
130	0x3c419611	0.011815564
131	0x3c6c39b4	0.014418054
132	0x3c5aff2c	0.013366502
133	0x3c6bff91	0.0144041935
134	0xbc8ff44d	-0.017572546
135	0x3c740ac5	0.014895146
136	0x3c63d7a5	0.013906394
137	0x3c05b72b	0.008161346
138	0x3c6b30f6	0.014354935
139	0xbc579da1	-0.01316014
140	0x3c696968	0.014246322
141	0xbc1cc5f6	-0.009568682
142	0xbc468950	-0.012117699
143	0x3c701e50	0.014655665
144	0x3c361b52	0.011114912
145	0xbc0a56b5	-0.008443524
146	0x3c726e60	0.014796823
147	0x3c499cbd	0.012305436
148	0x3c71d81c	0.014760997
149	0xbc7ef6c6	-0.015561765
150	0x3c72bae0	0.014815062
151	0x3cae0e84	0.021247156
152	0x3c506898	0.01272025
153	0xbc57c986	-0.0131706055
154	0x3c6e7b87	0.014555818
155	0x3c9864c1	0.01860273
156	0x3c5aa32f	0.01334457
157	0xbc755a47	-0.014975137
158	0xbc4b0c0d	-0.01239301
159	0x3c701685	0.014653807
160	0x3c2f5e99	0.010703706
161	0xbc030d73	-0.007998812
162	0xbc1820e8	-0.009285189
163	0x3c6e7831	0.014555023
164	0x3c6d364a	0.014478276
165	0xbc40b057	-0.011760793
166	0xbbc4c268	-0.0060046203
167	0x00000000	0.0
168	0xbc3889aa	-0.01126329
169	0x3c13518a	0.008991608
170	0x3c6d91bf	0.014500081
171	0x3c67391f	0.01411274
172	0x3c4fd500	0.0126850605
173	0xbc477d08	-0.012175806
174	0xbc81877f	-0.01581168
175	0xbc8a2413	-0.016862905
176	0xbc990e1e	-0.01868349
177	0x3c6b8987	0.014376051
178	0x3bb5ae6a	0.0055444734
179	0xbc0f77e4	-0.0087566115
180	0xbc7b768a	-0.015348086
181	0x3c909a1a	0.017651606
182	0x3c391558	0.011296593
183	0xbc4b933b	-0.012425239
184	0x3b8c15b0	0.0042750463
185	0x3b9bf74b	0.004759704
186	0xbca3c8c7	-0.019993199
187	0xbc3dc923	-0.011583599
188	0xbc500128	-0.012695588
189	0xbc9dda67	-0.019269181
190	0xbc779e8e	-0.015113486
191	0xbc90ca7c	-0.017674677
192	0x3c2440e5	0.010025238
193	0xbc26ec30	-0.010188147
194	0x3c5e9b45	0.013586824
195	0x3c728352	0.014801817
196	0xbc76136b	-0.015019278
197	0xbc9a9f3f	-0.018874763
198	0x3c5a3721	0.013318808
199	0xbc7122f7	-0.014717809

dense_2/bias f4 [100]
0	0x3c016974	0.007898677
1	0x3c301e53	0.010749417
2	0x3c17ddcd	0.00926919
3	0x3c371462	0.011174293
4	0xbbd2dcc9	-0.006435011
5	0x3ade9f90	0.0016984809
6	0x3c772927	0.015085495
7	0x3c1ef20b	0.009701262
8	0x3ac0152f	0.0014654751
9	0x00000000	0.0
10	0x3c1b470e	0.00947739
11	0x3b0b48b8	0.002125306
12	0x3c00f15c	0.007870045
13	0xbca18d6c	-0.019720756
14	0x3b750b2d	0.0037390694
15	0x3c2296d3	0.009923655
16	0xbc412116	-0.011787673
17	0x3c3f2b1a	0.011667991
18	0xbc4fb8ad	-0.0126783075
19	0xbc033dca	-0.008010337
20	0x3c49bf91	0.012313739
21	0x3c41fc2d	0.011839909
22	0xbca6aede	-0.020347055
23	0xbb9bb8cf	-0.0047522555
24	0x3b1ac9ac	0.002361874
25	0x3bee85c5	0.00727913
26	0x3c2b6ba2	0.010462673
27	0x3c24d2ba	0.010060007
28	0xbc956fe2	-0.018241826
29	0x3c1ab09d	0.009441522
30	0x3b626976	0.0034547723
31	0xbc1b286c	-0.009470087
32	0xbc7fc469	-0.015610793
33	0x3bd074b6	0.0063615693
34	0xbb72b3c4	-0.0037033418
35	0xbc812daa	-0.015768845
36	0x3b532c01	0.0032222273
37	0xba7ebe9f	-0.0009717736
38	0xbc5dc62f	-0.01353602
39	0x3bf08f72	0.0073413188
40	0xbc7481c0	-0.014923513
41	0x3c3eae00	0.0116381645
42	0x3c379c4e	0.0112067
43	0xbc39548b	-0.0113116605
44	0x3c4d8e50	0.012546137
45	0xbc0ccf00	-0.0085942745
46	0xbc8d2f07	-0.017234338
47	0x3c5ecb61	0.013598294
48	0xbc4a8fe5	-0.012363409
49	0x3c264acc	0.010149669
50	0xbb851d1f	-0.0040623094
51	0x3c4cb111	0.012493388
52	0xbb80352c	-0.0039125886
53	0x3c3c27af	0.011484071
54	0xbc586fbd	-0.013210234
55	0xbc40feb3	-0.011779475
56	0x3b472706	0.003038825
57	0x3c5dfa17	0.013548396
58	0x3c8d8d24	0.017279215
59	0xbc4ebefa	-0.012618775
60	0xbc965588	-0.018351331
61	0xbcc555fc	-0.024088852
62	0x3c225deb	0.009910087
63	0xbc017ca0	-0.007903248
64	0x3c0a2c96	0.008433482
65	0x3c3ae18d	0.011406315
66	0x3c28e093	0.010307449
67	0xbc3cc7f8	-0.011522286
68	0xbc0f3900	-0.008741617
69	0x3c1c0f8f	0.009525194
70	0x3c53ea01	0.012934209
71	0xbc458873	-0.012056458
72	0xba4e62a3	-0.00078729744
73	0xbbe450f7	-0.0069676596
74	0xbcb55201	-0.02213383
75	0x3c4d6e28	0.01253847
76	0xbb39ada3	-0.0028332255
77	0xbbe8b221	-0.0071013127
78	0xbc727d5e	-0.014800398
79	0xbb3cf4e5	-0.0028832492
80	0x3c16d0b7	0.009205035
81	0x3b8a976c	0.0042294767
82	0x3c29f5ba	0.010373527
83	0x3c61f276	0.013790717
84	0x3c15cde5	0.009143327
85	0x3c812179	0.015763031
86	0x3b8dfaea	0.00433289
87	0x3c332b3e	0.010935603
88	0x3c0b59ff	0.008505343
89	0x394d382c	0.00019571249
90	0x3c4bba12	0.012434499
91	0x3c2e274b	0.010629485
92	0x3a8d0ec6	0.0010761849
93	0x3a835d7a	0.0010022365
94	0x00000000	0.0
95	0xbc3fa4d0	-0.011697009
96	0x3b7d29f7	0.003862975
97	0x3c5ddae1	0.013540954
98	0xbc823291	-0.015893253
99	0x3c09db2e	0.008414073

dense_1/bias f4 [100]
0	0xbc4b8719	-0.0124223465
1	0xbbe4d7f0	-0.0069837496
2	0x3c034a49	0.008013316
3	0xbc342da2	-0.010997208
4	0xbc45ded3	-0.012077051
5	0x3c649b3c	0.013953026
6	0xbc3550f1	-0.011066661
7	0x3aa57ed7	0.0012626302
8	0x3b2ef8c1	0.0026698562
9	0x3b833f73	0.0040053665
10	0x3d0d0118	0.03442487
11	0x3bd21305	0.0064109587
12	0x3c7240b3	0.014785933
13	0x3bf70f06	0.0075396327
14	0xbc9f398f	-0.019436626
15	0xbbd486cc	-0.0064857956
16	0x3be617b2	0.0070218677
17	0x3b107b10	0.0022046007
18	0x3a53a3c9	0.0008073417
19	0xbc39ace0	-0.0113327205
20	0x3ae2fbdf	0.0017317495
21	0x3b5c0ee6	0.0033578216
22	0xbc992ba3	-0.018697565
23	0xbb72a818	-0.0037026461
24	0xbc3184ec	-0.010834914
25	0x3b281c61	0.002565168
26	0x3ba2b065	0.0049648755
27	0x3c83c091	0.016083034
28	0x3c1c88f4	0.009554137
29	0x3a9b41b0	0.0011845138
30	0x3c417a80	0.011808991
31	0xba3bceed	-0.0007164318
32	0xbcac6bc8	-0.021047488
33	0x3ccab10d	0.024742628
34	0x3c35398f	0.011061086
35	0x3c4a5fdd	0.012351957
36	0xbc605cb0	-0.013693973
37	0x3c051a29	0.008123913
38	0x3c1ab4a5	0.009442483
39	0x3c8a20a8	0.016861275
40	0xbb26a759	-0.0025429337
41	0x3cb36a3c	0.021901242
42	0xbc5ab85f	-0.013349622
43	0x3c1dbb76	0.009627214
44	0xbcb9d77d	-0.02268576
45	0x3c0e53d0	0.008686975
46	0xbc975639	-0.018473731
47	0x3c7f73ba	0.015591556
48	0x3bc81a08	0.006106619
49	0x3bc06f58	0.005872648
50	0xbb3af581	-0.002852768
51	0x3bebee39	0.007200029
52	0x3c432e37	0.011912874
53	0xbbad092f	-0.005280636
54	0xbad40607	-0.0016176113
55	0x3c8dbc17	0.017301602
56	0xbc862fcc	-0.016380213
57	0x3acb98e6	0.0015533238
58	0xbc872d4c	-0.016501091
59	0x3c61403c	0.013748225
60	0x3c6e5ada	0.014548028
61	0x3c43dfd2	0.011955218
62	0x3c07d8af	0.0082914075
63	0xbc0813f1	-0.008305536
64	0x3c8f41bf	0.017487405
65	0x3ba53318	0.0050414912
66	0x3d1071b9	0.035264704
67	0x3bd3f028	0.006467838
68	0x3c7c2ec1	0.015392006
69	0x3bd538c5	0.0065070116
70	0xbc9d87eb	-0.01922985
71	0xbb100329	-0.002197454
72	0xbc01a694	-0.0079132505
73	0x3c3b0c89	0.011416563
74	0x3c32633f	0.01088792
75	0xbc5bc7e9	-0.0134143615
76	0xbc755c3a	-0.014975602
77	0x3b008df5	0.0019615863
78	0x3c5b973d	0.013402757
79	0xbc8dc6ef	-0.017306773
80	0x3c2877cb	0.010282467
81	0xbcd90f0f	-0.026496438
82	0x3a5ab129	0.0008342439
83	0x3b97a340	0.004627615
84	0x3c68b14a	0.014202425
85	0xbcc6df20	-0.024276316
86	0x3c2fc5f8	0.010728352
87	0x3cb4a06b	0.02204915
88	0x3a8ae415	0.0010596538
89	0xba36b822	-0.0006970187
90	0x3cb7f491	0.022455486
91	0x3a162d3a	0.0005728785
92	0x3b2b2849	0.002611654
93	0x3bf315d3	0.007418373
94	0xbc2ad6c0	-0.010427177
95	0xbc3af6ad	-0.011411351
96	0x3c350a9e	0.011049895
97	0x3cf7540e	0.030191448
98	0xbc561d70	-0.013068542
99	0xbb0a915d	-0.0021143772

dense/bias f4 [46]
0	0x3bd0e716	0.006375204
1	0x3c320f48	0.010867901
2	0xbc035194	-0.008015055
3	0x3a0f81aa	0.00054743385
4	0x3c176dea	0.009242514
5	0x3c61d6f1	0.013784156
6	0xbc8769ca	-0.016529936
7	0xbcee70e8	-0.029106572
8	0x3bf3c378	0.007439073
9	0x3cd381fe	0.025818821
10	0x3c247a53	0.01003893
11	0xba7b341c	-0.0009582655
12	0x3bdb8ab8	0.006699886
13	0x3c9f7986	0.019467127
14	0x3bddbc8e	0.0067668622
15	0x3bfa7355	0.007643143
16	0x3c25ae65	0.01011238
17	0xbb020f01	-0.0019845369
18	0xbc21dfe4	-0.00988004
19	0x3bf399f8	0.007434126
20	0x3b8e3316	0.004339586
21	0x3c69839d	0.01425257
22	0xbc007807	-0.007841117
23	0x38a371ce	7.7936435e-05
24	0x3d2032f3	0.03911109
25	0x3caa5de2	0.02079672
26	0x3be7ea5f	0.0070774998
27	0x3d2dac90	0.042400897
28	0x3cc04e76	0.023474913
29	0xbcba1b2a	-0.022718031
30	0x3c070fdf	0.00824353
31	0x3cae2087	0.021255745
32	0xbc9190c0	-0.017769217
33	0x3b8829ab	0.004155358
34	0x3b930773	0.004486972
35	0x3bfc17ab	0.007693251
36	0xbc03edd7	-0.008052311
37	0x3b3d3754	0.002887209
38	0x3b89f0db	0.0042096204
39	0x3c206f76	0.009792199
40	0xbc27ef80	-0.010249972
41	0x3b3f3a30	0.002917897
42	0x3be4957f	0.006975829
43	0x3d0f9ec9	0.03506354
44	0x3b8ed88e	0.0043593114
45	0x3cbafb00	0.022824764

model/dense/MatMul f4 [46, 46]
0	0x3e7e217b	0.2481746
1	0xbe200985	-0.15628631
2	0xbd60a59e	-0.054845445
3	0xbe460555	-0.19337972
4	0x3e911bd1	0.28341535
5	0x3dd153cf	0.10221063
6	0x3d2f5f88	0.042815715
7	0xbe5e3949	-0.2170154
8	0xbe865236	-0.26234597
9	0x3cc0323a	0.02346145
10	0x3d58c007	0.052917507
11	0x3d848bda	0.06471987
12	0x3e16a8ec	0.14712876
13	0xbe754efa	-0.23955908
14	0xbe491aec	-0.19639176
15	0x3e6d8c07	0.23197947
16	0x3d2536ac	0.040335342
17	0xbe1b1de3	-0.1514812
18	0x3e0c4d6a	0.13701406
19	0x3e66512b	0.224919
20	0x3d0feec2	0.035139807
21	0x3e2d4939	0.16922463
22	0xbe62de12	-0.22155026
23	0xbc56e78e	-0.01311673
24	0xbc892d1c	-0.016745143
25	0xbe39e565	-0.18153913
26	0x3df86674	0.121289164
27	0x3e4e9707	0.201748
28	0xbe6c03a6	-0.23048267
29	0x3e2187ab	0.1577441
30	0x3e560a8c	0.20902461
31	0x3d958acb	0.07301863
32	0xbdab49d1	-0.08363689
33	0xbe3b8ae8	-0.18314707
34	0x3e0652eb	0.13117568
35	0x3e169e53	0.14708833
36	0x3e789604	0.24275976
37	0x3e829b3e	0.25509065
38	0x3e6d194c	0.23154181
39	0x3df82096	0.1211559
40	0x3e20ce14	0.15703613
41	0x3d20b062	0.03923071
42	0x3a459269	0.00075367704
43	0xba8bb848	-0.0010659778
44	0x3e20fa8a	0.15720573
45	0x3e8ecc9c	0.2789048
46	0x3e4dd9f4	0.20102674
47	0x3e0bc6d2	0.13650063
48	0xbe47c4c9	-0.19508661
49	0xbde8b014	-0.11361709
50	0x3cfe1a1c	0.03101831
51	0x3e3dba6a	0.18528143
52	0xbd5f305f	-0.05448949
53	0x3e511686	0.20418748
54	0xbe6393fc	-0.2222442
55	0x3d90f731	0.07078398
56	0xbb4410bc	-0.00299172
57	0x3d5f4fcb	0.054519456
58	0xbbc332a6	-0.0059569655
59	0xbd45eec4	-0.048323408
60	0x3d257081	0.040390495
61	0x3dd54b61	0.10414768
62	0xbe095d70	-0.1341455
63	0x3e7b7ec1	0.24560072
64	0xbe328133	-0.17432098
65	0x3e111af5	0.1417044
66	0xbe5c6c55	-0.215257
67	0x3dbb36da	0.091413215
68	0x3cd92675	0.026507596
69	0xbc045909	-0.008077868
70	0xbe68e6e4	-0.22744328
71	0x3e5d7545	0.21626766
72	0xbc8e9fae	-0.017410126
73	0xbe085c41	-0.13316442
74	0xbc851ff4	-0.016250588
75	0x3cf6571b	0.030070832
76	0x3de678dc	0.11253521
77	0x3e8340d8	0.2563541
78	0x3b38357b	0.0028108049
79	0xbe04bc5b	-0.12962477
80	0x3e2cfb42	0.16892722
81	0x3e55889d	0.20852895
82	0xbdb71dca	-0.08941229
83	0xbca110ab	-0.019661268
84	0x3e98f084	0.29871
85	0x3dc6e8a8	0.097123444
86	0xbcfbb804	-0.030727394
87	0x3dca124b	0.0986677
88	0xbd587102	-0.052842148
89	0xbde74eef	-0.11294352
90	0xbdc4761d	-0.09592841
91	0xbe31a1c1	-0.1734686
92	0x3cc310e4	0.023811765
93	0xbe03bc7f	-0.12864874
94	0x3d2b6688	0.04184583
95	0x3cf5680d	0.029956842
96	0xbd37ee86	-0.044905208
97	0x3e35d962	0.17758706
98	0x3d93ec24	0.072227746
99	0xbe5b4c57	-0.2141584
100	0x3d84bfb1	0.06481875
101	0xbe8efeff	-0.27928922
102	0xbd48d36b	-0.04902975
103	0x3dd84079	0.10559172
104	0x3e09cfbf	0.13458155
105	0xb912376e	-0.00013944294
106	0x3d79d042	0.060989626
107	0xbe13abf6	-0.14421067
108	0xbe204bfe	-0.15653989
109	0xbccccf0d	-0.025001073
110	0x3cc99b23	0.024610108
111	0xbbec9359	-0.0072197136
112	0x3c5bc125	0.013412748
113	0xbe0883e0	-0.13331556
114	0xbda8b530	-0.08237684
115	0xbe8ac203	-0.27101144
116	0x3e3d3d8c	0.1848051
117	0x3e7a16a0	0.24422693
118	0xbd75c56f	-0.06000274
119	0xbe3acdfd	-0.18242641
120	0x3cc5246c	0.024065219
121	0x3d49c25e	0.04925763
122	0x3e224fc3	0.15850739
123	0xbd1fdb18	-0.039027303
124	0x3e380ba2	0.17973188
125	0x3e2dca56	0.16971716
126	0x3e54e19e	0.20789191
127	0xbd764ba9	-0.06013075
128	0xbd50fd77	-0.051022973
129	0xbdf094e8	-0.117471516
130	0x3decd87b	0.11564728
131	0x3e710531	0.23537137
132	0x3df0c447	0.11756187
133	0x3d35d3db	0.044391494
134	0x3e30e887	0.17276202
135	0xbe447e94	-0.1918891
136	0xbd4a5a3e	-0.049402468
137	0xbdb2861c	-0.087169856
138	0x3e339395	0.17536767
139	0x3db041a8	0.08606273
140	0x3e861963	0.26191244
141	0xbc1d10e9	-0.009586551
142	0xbe507df6	-0.2036055
143	0xbe73972f	-0.2378814
144	0xbe307c41	-0.17234899
145	0x3d86e3c2	0.0658641
146	0x3e203456	0.15644965
147	0x3c7687a2	0.015046986
148	0x3d8a7570	0.06760681
149	0xbe23f5a2	-0.1601167
150	0x3d6a7d45	0.057248373
151	0xbd063ce6	-0.03277292
152	0xbcdd3cca	-0.027006526
153	0x3e12af89	0.14324774
154	0x3e80b4db	0.25137982
155	0x3c8b8d5c	0.017035179
156	0xbe482c10	-0.19548059
157	0xbd474807	-0.048652675
158	0x3e558b02	0.20853809
159	0xbd010897	-0.031502333
160	0xbe59768d	-0.2123663
161	0x3d1b78b0	0.037956893
162	0x3d278a70	0.04090351
163	0xbbfa300f	-0.0076351236
164	0x3e48d6d3	0.19613199
165	0xbd3b08a5	-0.04566254
166	0x3ce9ae8a	0.02852561
167	0x3e64371e	0.2228665
168	0x3e640497	0.22267376
169	0xbe61a323	-0.22034888
170	0x3e60d1c7	0.21955024
171	0xbd80fcb6	-0.06298201
172	0x3e00daf4	0.12583524
173	0xbe3ecbd0	-0.18632436
174	0x3e49a758	0.19692743
175	0xbdfac2db	-0.12244197
176	0xbe5edbf0	-0.21763587
177	0xbca25443	-0.01981557
178	0xbddfe33f	-0.10932016
179	0xbe1a2761	-0.15054084
180	0xbe573bed	-0.21018954
181	0xbdca2e9e	-0.09872173
182	0x3d829232	0.06375541
183	0xbe4f91c4	-0.20270449
184	0xbe084e79	-0.13311185
185	0xbc604b8b	-0.013689886
186	0xbd989c2f	-0.07451665
187	0xbe0eac4d	-0.13932915
188	0xbe24c0ff	-0.16089247
189	0x3e15c6ba	0.1462659
190	0xbe826aa5	-0.25471988
191	0xbd0451bd	-0.032304514
192	0xbc017510	-0.007901445
193	0x3e0063ab	0.1253802
194	0xbe802ddf	-0.25034997
195	0xbd2e6314	-0.042574957
196	0xbe0b4b04	-0.13602835
197	0xbb393bc3	-0.002826438
198	0xbde84286	-0.11340813
199	0x3e21b784	0.15792662
200	0x3e8981ba	0.26856786
201	0xbe217f22	-0.15771154
202	0x3e8ecf4f	0.2789254
203	0xbdc3df7d	-0.095641114
204	0x3e666e3b	0.22502987
205	0xbe3857e8	-0.18002284
206	0xbd86e096	-0.06585805
207	0x3de1f5de	0.110332236
208	0x3e8c40ab	0.27393088
209	0xbd1c4596	-0.0381523
210	0x3d46a794	0.04849966
211	0xbe332968	-0.17496264
212	0xbe37aebd	-0.17937751
213	0xbe7fe835	-0.24990924
214	0xbdf55fbb	-0.1198115
215	0xbe38fc21	-0.1806493
216	0xbe65b42e	-0.22432014
217	0xbe185930	-0.14877772
218	0xbd3e5121	-0.04646409
219	0xbc14b1cb	-0.009075592
220	0x3e4a326e	0.197458
221	0x3be74daf	0.007058821
222	0x3cf90aa7	0.030400587
223	0x3d23ac61	0.039959315
224	0xbddfc960	-0.10927081
225	0xbd0f1edf	-0.03494155
226	0x3e173abc	0.14768499
227	0x3d838826	0.06422453
228	0x3e320ec3	0.17388444
229	0x3e02efbe	0.12786767
230	0xbd3c7a7e	-0.046015255
231	0xbe63e115	-0.2225383
232	0x3c1d808f	0.00961317
233	0x3cb0b11b	0.021568825
234	0x3e28aabf	0.16471384
235	0xbe4bf70c	-0.1991846
236	0x3e44fba7	0.19236623
237	0x3d42bfdb	0.04754625
238	0x3cc06ae0	0.023488462
239	0x3e427123	0.1898847
240	0xbdf64a31	-0.1202587
241	0x3e97ae4a	0.2962516
242	0x3d500d41	0.05079389
243	0xbe3c0129	-0.18359818
244	0xbd76df42	-0.06027151
245	0xbe44a827	-0.1920477
246	0xbe76962c	-0.24080724
247	0x3d8936e3	0.06699922
248	0xbe439c3b	-0.19102566
249	0x3e09395e	0.1340079
250	0xbdaf7ea5	-0.085690774
251	0x3da85595	0.082194485
252	0x3da62293	0.08112063
253	0x3e3bfed8	0.18358934
254	0xbc0ac0a0	-0.008468777
255	0x3ce4000a	0.02783205

model/dense_1/MatMul f4 [100, 46]
0	0x3df954a8	0.1217435
1	0xbddc737f	-0.10764217
2	0xbe0ba9ab	-0.13638942
3	0xbe35c331	-0.17750241
4	0x3c9969e0	0.018727243
5	0xbdf5f518	-0.120096385
6	0xbe356dd3	-0.17717676
7	0xbe22f9fc	-0.15915674
8	0xbe087a2a	-0.13327852
9	0x3d17a0d4	0.037018612
10	0xbdec4d03	-0.11538126
11	0x3dff6a70	0.12471473
12	0xbe217894	-0.15768653
13	0x3dffad20	0.12484193
14	0x3cc510da	0.024055887
15	0xbe4fee8b	-0.2030584
16	0x3db85a68	0.090016186
17	0xbe325fc6	-0.17419347
18	0x3bbfab80	0.005849302
19	0x3de914b4	0.11380902
20	0xbc4ab700	-0.012372732
21	0xbd8ef47d	-0.06980226
22	0xbd605f60	-0.054778457
23	0xbd125bd1	-0.035732094
24	0x3d8a7aad	0.0676168
25	0x3c77e2f8	0.015129797
26	0xbe4da055	-0.20080693
27	0xbd854c10	-0.065086484
28	0xbcfe3236	-0.031029802
29	0xbe22ed58	-0.15910852
30	0xbd41a4cc	-0.047276303
31	0x3e0b0c32	0.13578871
32	0xbcc01394	-0.023446836
33	0xbd9339da	-0.07188769
34	0x3d305d6b	0.04305784
35	0x3e30720d	0.17231007
36	0x3c69a14c	0.014259648
37	0x3e18470b	0.1487085
38	0xbe2d75c3	-0.16939454
39	0x3d3c7dcc	0.046018407
40	0x3ddac951	0.10682929
41	0xbe286089	-0.16443075
42	0x3be49d3f	0.006976753
43	0x3ca463ec	0.020067178
44	0xbc4b4618	-0.012406848
45	0xbdc25699	-0.094891734
46	0x3e0e30bf	0.13885783
47	0x3d67fa4c	0.056635186
48	0xbd9827c5	-0.074294604
49	0xbd7cc90b	-0.061715167
50	0xbd8d9ac6	-0.06914286
51	0x3d21b0e1	0.039475325
52	0xbcd92c38	-0.026510343
53	0xbe3425ec	-0.17592591
54	0xbe0797e3	-0.13241534
55	0x3db14e01	0.08657456
56	0x3e287698	0.1645149
57	0x3d09de64	0.033659354
58	0x3dfc9286	0.12332635
59	0xbc19e066	-0.00939188
60	0xbcae87ad	-0.02130493
61	0x3e576e58	0.21038187
62	0x3df3c459	0.11902685
63	0x3ccc88be	0.024967548
64	0xbe77aea4	-0.24187714
65	0x3be16cd3	0.006879428
66	0x3e5ff751	0.21871687
67	0xbd95f9bb	-0.07323023
68	0xbd55f0a3	-0.052231442
69	0xbe536b79	-0.20646466
70	0x3d0bb139	0.03410456
71	0xbe717caf	-0.2358272
72	0xbe49e4b4	-0.1971615
73	0xbd18700d	-0.037216235
74	0x3de27450	0.11057341
75	0x3c987a41	0.018612983
76	0x3dfb9952	0.12285103
77	0x3e6e6eca	0.2328445
78	0x3e5736aa	0.21016946
79	0x3d1a2dd8	0.037641376
80	0x3e2bcc64	0.16777188
81	0x3ccca160	0.024979293
82	0xbdd78c16	-0.10524766
83	0xbe294ac5	-0.16532429
84	0x3ccf8788	0.025333181
85	0x3dc25331	0.09488524
86	0x3dfd0142	0.123537555
87	0x3da508c6	0.08058314
88	0xbe6b6768	-0.22988665
89	0xbd37f765	-0.04491367
90	0xbe234b14	-0.15946609
91	0xbda5dd77	-0.08098882
92	0x3da3ba63	0.07994535
93	0xbe21eb0d	-0.15812321
94	0xbe05c973	-0.13065128
95	0x3d3bbc63	0.045833956
96	0xbd78f536	-0.060780726
97	0x3d2b0969	0.04175702
98	0xbe16630b	-0.1468622
99	0xbe204a2f	-0.15653299
100	0x3e073f72	0.13207796
101	0x3b9f6998	0.0048648827
102	0x3e1a38f2	0.15060785
103	0x3e002ba3	0.12516646
104	0x3e46ad45	0.19402035
105	0x3ce6889e	0.028141316
106	0xbdd7f2b3	-0.10544338
107	0x3e0d9eab	0.13830058
108	0x3da96394	0.08270946
109	0xbdad926b	-0.08475193
110	0x3c8b62d8	0.017014906
111	0xbe3430b9	-0.17596711
112	0x3cd399e8	0.025830224
113	0x3d812dcc	0.06307563
114	0xbd96290f	-0.0733205
115	0x3e4c8752	0.19973496
116	0xbdf9c672	-0.121960536
117	0xbe30c6de	-0.17263362
118	0x3e4b34e9	0.19844402
119	0x3e170ba8	0.1475054
120	0x3e735ab8	0.23765075
121	0xbddaf5bb	-0.106914006
122	0xbe0dfba8	-0.1386553
123	0x3e599139	0.21246804
124	0x3d0b6b92	0.034038134
125	0x3e00d6a3	0.12581877
126	0xbe3dd745	-0.1853915
127	0x3e530e88	0.20611012
128	0x3e28bcb5	0.16478236
129	0xbd331af2	-0.04372687
130	0xbe2f9bc7	-0.17149268
131	0xbd292434	-0.04129429
132	0x3e029cf2	0.12755182
133	0xbe126bc4	-0.14298922
134	0x3b7d1d1e	0.0038622092
135	0xbe3197de	-0.17343089
136	0x3ddc36e8	0.1075266
137	0x3e27e411	0.16395594
138	0xbe27a98b	-0.1637327
139	0x3d91d747	0.07121139
140	0xbda6364a	-0.081158236
141	0xbcfceadf	-0.030873714
142	0x3db90a52	0.090351716
143	0x3e49f756	0.19723257
144	0x3e443655	0.19161351
145	0xbd5a6492	-0.053318568
146	0x3c2fc98e	0.010729207
147	0x3e18c1c0	0.1491766
148	0xbe0063fa	-0.12538138
149	0xbca08b12	-0.019597564
150	0xbd4b9807	-0.04970553
151	0xbd8b5441	-0.068031795
152	0xbe1fb484	-0.15596205
153	0xbd8c5b04	-0.06853297
154	0xbe30ffb4	-0.17285043
155	0x3e1c8e29	0.15288605
156	0xbd274b34	-0.040843204
157	0x3e3e276a	0.18569723
158	0xbe462086	-0.19348344
159	0xbb488096	-0.0030594221
160	0x3e24a252	0.16077545
161	0xbdaae372	-0.08344163
162	0x3d036626	0.03207984
163	0x3d85544e	0.065102205
164	0x3a66fd8c	0.0008811585
165	0x3d4e3809	0.050346408
166	0xbe6a8df1	-0.22905709
167	0xbb3b5adc	-0.0028588092
168	0x3daff244	0.085911304
169	0x3a6b8231	0.00089839386
170	0x3def3f2e	0.116819724
171	0xbe0a11e7	-0.13483392
172	0x3e504aba	0.20341006
173	0x3e4db0aa	0.20086923
174	0xbcacdf36	-0.021102529
175	0xbe47489a	-0.19461289
176	0x3caf98a9	0.021435099
177	0xbe69adfc	-0.22820276
178	0xbd679a69	-0.05654374
179	0xbb0a8566	-0.002113664
180	0x3e44e0da	0.19226399
181	0x3b520021	0.0032043534
182	0x3dba6fd4	0.09103361
183	0x3e2655cb	0.16243665
184	0xbc913645	-0.017726073
185	0x3c1c1f85	0.009528999
186	0xbd5f1064	-0.05445899
187	0xbd017f81	-0.031615738
188	0x3cb65324	0.022256441
189	0xbc1ef651	-0.009702281
190	0x3c80a00b	0.015701314
191	0xbe3f15ba	-0.18660632
192	0xbd1430e4	-0.03617944
193	0xbde8f23a	-0.11374326
194	0xbdf6f69d	-0.120587565
195	0x3e19eb2e	0.1503112
196	0xbe52aae6	-0.20573005
197	0xbd06e777	-0.032935586
198	0x3d545eda	0.05184827
199	0xbde9a693	-0.11408725
200	0x3bbef333	0.0058273314
201	0x3d046b53	0.032328915
202	0x3d4e6505	0.05038931
203	0xbe3a770b	-0.18209474
204	0x3d0206d7	0.031744804
205	0xbe19965d	-0.14998765
206	0xbe3848f2	-0.17996576
207	0xbc8a08b7	-0.016849859
208	0x3c3915b2	0.0112966765
209	0x3d45fdab	0.04833762
210	0x3db4f6ba	0.08836122
211	0xbb153b3e	-0.0022770907
212	0xbce3b45b	-0.027795961
213	0xbe0931b3	-0.13397865
214	0xbd32a721	-0.043616418
215	0x3e757d09	0.23973478
216	0x3e428f23	0.18999915
217	0x3d6ef058	0.05833468
218	0xbe2c01cd	-0.16797562
219	0x3e3ef09a	0.1864647
220	0x3e0dbc3b	0.13841335
221	0xbe6ade9a	-0.22936478
222	0x3d8a2d84	0.06746963
223	0x3e154593	0.14577322
224	0x3c4f6f32	0.012660788
225	0x3d95c103	0.07312205
226	0xbe6fd525	-0.23421152
227	0x3dce404b	0.10070857
228	0xbce06140	-0.027390122
229	0x3d943742	0.07237102
230	0xbde9182b	-0.11381563
231	0xbd72fa10	-0.05932051
232	0x3e6342bb	0.22193424
233	0x3d964f44	0.073393375
234	0xbd315c4f	-0.043300923
235	0xbe13f651	-0.14449431
236	0xbddcbac2	-0.10777809
237	0x3c955b6a	0.018232066
238	0xbe08dd7a	-0.13365737
239	0x3e3ed143	0.18634515
240	0x3e5092fb	0.20368569
241	0xbda2ba84	-0.07945731
242	0xbd35b91e	-0.044365995
243	0xbddd1d2d	-0.107965805
244	0xbddd961d	-0.108196475
245	0xbcf6899c	-0.030094914
246	0xbe4f3841	-0.20236303
247	0xbe1b65bb	-0.15175526
248	0x3e3d68ba	0.18496981
249	0x3e0d130c	0.13776797
250	0xbd9968fb	-0.074907266
251	0x3da82e80	0.08211994
252	0x3de5ee80	0.11227131
253	0xbd89a7c7	-0.06721454
254	0x3e0881c8	0.13330758
255	0xbd032498	-0.03201732

model/dense_2/MatMul f4 [100, 100]
0	0x3e13a810	0.1441958
1	0xbdfb750e	-0.12278186
2	0xbdeb54c3	-0.114907764
3	0x3e015a35	0.12632068
4	0x3babbf55	0.0052413144
5	0x3e0aa32e	0.1353881
6	0x3caea60a	0.021319408
7	0xbc909db2	-0.01765332
8	0xbc827ef9	-0.015929686
9	0xbdb87ee0	-0.090085745
10	0x3d7e3ace	0.0620678
11	0xbe361788	-0.17782414
12	0x3ce2b2b4	0.027673103
13	0x3d4e788b	0.050407927
14	0x3e2fc597	0.17165218
15	0x3db1f26f	0.08688819
16	0xbd808963	-0.062762044
17	0xbdce3a3a	-0.100696996
18	0xbc319ae5	-0.010840152
19	0xbdfefbb8	-0.12450355
20	0xbdde34d2	-0.108499184
21	0xbdc666f3	-0.09687605
22	0xbe27262e	-0.16323158
23	0xbd771a6e	-0.06032794
24	0x3e02fc4f	0.1279156
25	0x3d1e3ea5	0.03863396
26	0xbe068c75	-0.13139518
27	0xbd8ff8f7	-0.07029908
28	0x3dce0157	0.10058849
29	0xbd863c37	-0.06554454
30	0x3c176f61	0.009242863
31	0x3e21823e	0.1577234
32	0x3c536220	0.012901813
33	0xbd7effc6	-0.062255643
34	0x3dc1cf54	0.09463373
35	0xbe0047d3	-0.12527399
36	0xbd5759a1	-0.05257571
37	0xbe0590eb	-0.13043563
38	0x3e2aab32	0.16666868
39	0x3ccda210	0.025101691
40	0xbe15d884	-0.14633375
41	0xbd6045c2	-0.054754026
42	0xbdf9055d	-0.12159226
43	0xbe36b0a3	-0.17840819
44	0x3d911fb6	0.070861265
45	0x3e05bc3b	0.13060085
46	0xbd878ade	-0.06618284
47	0x3d847ebd	0.06469486
48	0xbd34b53c	-0.04411815
49	0x3da18c9d	0.07888148
50	0xbe1fecfb	-0.15617745
51	0x3e0bc50f	0.1364939
52	0x3e2a1277	0.16608606
53	0xbdae0b2c	-0.084982246
54	0x3d99b8c1	0.07505942
55	0xbdeb760a	-0.114971235
56	0x3c6f00b6	0.014587572
57	0xbd0d5c46	-0.034511827
58	0x3d71cc6e	0.05903285
59	0xbceb0b92	-0.02869204
60	0xbd1c5ebd	-0.038176287
61	0xbdabe213	-0.083927296
62	0x3d8f9cae	0.07012306
63	0xbd400e7d	-0.046888817
64	0xbdeaa03c	-0.114563435
65	0xbd1dd99b	-0.038537603
66	0x3e33fbd8	0.1757654
67	0xbd3f2858	-0.046669334
68	0xbd8f13d8	-0.06986207
69	0xbdce24ff	-0.1006565
70	0x3dd362ec	0.10321602
71	0xbc435cba	-0.011923963
72	0xbd82b4ba	-0.06382127
73	0xbe095d7e	-0.1341457
74	0xbe2b560a	-0.1673204
75	0x3de18f09	0.1101361
76	0x3ddb5d59	0.10711164
77	0xbe2d39f7	-0.16916643
78	0x3cd58982	0.026066545
79	0xbe177a4a	-0.14792743
80	0x3db4cfbc	0.08828685
81	0x3da60b5e	0.08107637
82	0xbd0b62d0	-0.03402978
83	0xbe1fe0f5	-0.15613158
84	0x3e14deb4	0.1453808
85	0xbd78b90c	-0.06072335
86	0x3d1737b1	0.036918346
87	0xbdf961ba	-0.12176843
88	0x3dd228a4	0.10261658
89	0xbdc3c844	-0.09559682
90	0xbe0fe860	-0.14053488
91	0x3e288626	0.16457424
92	0x3cfa01e6	0.030518483
93	0x3d35a26c	0.04434435
94	0xbce482a0	-0.027894318
95	0xbcf499da	-0.029858518
96	0xbdbc5edb	-0.0919778
97	0xbd8815ab	-0.06644758
98	0x3c10a6c6	0.008828824
99	0xbd59be12	-0.05315978
100	0xbdbcbf9f	-0.09216236
101	0x3dc4d301	0.09610558
102	0x3ce56a4a	0.028004784
103	0x3e23385b	0.15939467
104	0xbcbb89a8	-0.022892788
105	0x3cff6abe	0.031178828
106	0xbde22b50	-0.110434175
107	0x3d3da5ad	0.04630058
108	0xbe08b26d	-0.13349314
109	0x3dfc1202	0.12308122
110	0x3bc4b71a	0.0060032727
111	0x3e2ba1c1	0.16760923
112	0x3c92e724	0.017932482
113	0x3d2f3d8b	0.0427833
114	0x3d4fa23a	0.05069182
115	0x3daf4e66	0.08559875
116	0xbd72461a	-0.059148885
117	0x3e12cc30	0.14335704
118	0x3d8e9e15	0.069637455
119	0x3d05c98f	0.032662924
120	0xbc84d952	-0.016216908
121	0xbdca1903	-0.09868052
122	0x3e24586c	0.16049355
123	0xbd70ae50	-0.058759987
124	0xbdfab809	-0.12242133
125	0xbd8126d3	-0.06306233
126	0x3e3b4a58	0.18290079
127	0x3de511cc	0.11185035
128	0x3e24961b	0.16072886
129	0x3e2350d2	0.15948799
130	0xbdaed04a	-0.08535822
131	0x3c5217d4	0.012823064
132	0x3dd6cf1c	0.10488722
133	0x3e1447de	0.1448054
134	0xbd4ab9f3	-0.04949374
135	0xbdd208e1	-0.102556
136	0xbdeb489c	-0.114884585
137	0x3de82c87	0.11336618
138	0x3e3c738a	0.1840345
139	0x3da60773	0.081068896
140	0x3d4b1aae	0.04958599
141	0x3c7fa951	0.015604333
142	0x3cbba1da	0.022904325
143	0xbda2fc85	-0.079583205
144	0xbe401233	-0.18756942
145	0xbcca21ba	-0.024674285
146	0xbc88b93c	-0.01668989
147	0x3e4177be	0.18893334
148	0xbcd12188	-0.025528684
149	0xbdaf6ed0	-0.08566058
150	0xbdbfaf7d	-0.093596436
151	0xbbd955b6	-0.006632532
152	0xbdd35f5a	-0.10320921
153	0xbd2cd38e	-0.04219394
154	0x3e2efc0b	0.17088334
155	0xbb27ed9a	-0.00256238
156	0xbc5b438b	-0.013382803
157	0x3c47aad3	0.012186724
158	0xbd9cbb66	-0.07652931
159	0x3e0bda5f	0.1365752
160	0xbe103473	-0.14082508
161	0x3e0096ed	0.12557574
162	0x3d6712b7	0.056414332
163	0xbd12f9af	-0.035882648
164	0x3e425a62	0.18979791
165	0x3b2c388e	0.0026278826
166	0xbc9fe5fb	-0.019518843
167	0x3c45431e	0.012039928
168	0x3ca3a59e	0.019976433
169	0x3db486f7	0.08814805
170	0xbd86c76a	-0.06581004
171	0xbca73a21	-0.02041346
172	0xbdcbfe0a	-0.099605635
173	0xbdbc1a71	-0.09184731
174	0x3bc30f18	0.005952727
175	0xbd5c2316	-0.053744398
176	0x3d5b062a	0.053472675
177	0x3e403a95	0.18772347
178	0x3e2a66d9	0.16640796
179	0xbe28d0c8	-0.16485894
180	0x3e1699ca	0.14707103
181	0xbdd2e4dd	-0.102975585
182	0x3d863665	0.06553344
183	0x3cfb9479	0.030710446
184	0xbcf5525e	-0.029946502
185	0xbd196a94	-0.037455156
186	0x3e1488a8	0.14505255
187	0xbd744b2f	-0.059642013
188	0x3ce6bb39	0.028165447
189	0xbd83aa98	-0.064290226
190	0xbd75572a	-0.05989758
191	0x3e32c0ed	0.17456408
192	0x3e36a27b	0.17835419
193	0x3abc7504	0.0014378135
194	0xbd4d0236	-0.050050937
195	0xbdabeb7b	-0.08394524
196	0x3e094117	0.13403736
197	0x3db45380	0.08804989
198	0xbca40ba0	-0.020025074
199	0xbe37cf70	-0.17950225
200	0x3e0c1af8	0.13682163
201	0x3d0f3a46	0.034967683
202	0x3de43eaa	0.11144765
203	0xbb7a9285	-0.0038234305
204	0x3e1e6765	0.1546913
205	0x3d7e9471	0.062153284
206	0x3e19245d	0.14955278
207	0xbe13f2cb	-0.14448087
208	0xbd64fbc5	-0.05590417
209	0x3e3a1e2d	0.18175574
210	0xbcca067f	-0.0246613
211	0x3e349a06	0.1763688
212	0xbd8998fc	-0.067186326
213	0xbc887259	-0.016656088
214	0x3da29a52	0.079395905
215	0xbd9c88fd	-0.07643316
216	0xbda2609e	-0.079285845
217	0x3d06ac11	0.03287894
218	0x3dee0c29	0.11623413
219	0xbc5a226a	-0.013313869
220	0xbe0b0ba1	-0.13578655
221	0xbd1a2688	-0.037634403
222	0xba6ae8e4	-0.0008961095
223	0xbddee979	-0.10884375
224	0x3df2759e	0.1183884
225	0x3e22098d	0.15823956
226	0x3dde1b8d	0.10845099
227	0xbdeb535d	-0.1149051
228	0xbe05ddcf	-0.13072895
229	0xbd84bb86	-0.0648108
230	0x3dfa4baf	0.12221467
231	0xbe138356	-0.1440557
232	0x3c9e3ee1	0.019317092
233	0x3d3e961c	0.046529874
234	0x3cd0bf53	0.025481855
235	0x3db84c2e	0.08998905
236	0xbd75ab7a	-0.059977986
237	0xbd890219	-0.06689853
238	0x3df41f34	0.11920014
239	0x3e1f6b4c	0.15568274
240	0x3ddc9d8e	0.10772239
241	0x3d5e62eb	0.054293554
242	0x3e32e7cd	0.17471237
243	0x3d69a5c9	0.05704287
244	0xbe413eda	-0.18871632
245	0xbd7dcbae	-0.061961822
246	0xbe36fe21	-0.1787038
247	0xbde6124b	-0.11233958
248	0x3da86f3f	0.082243435
249	0x3d4badb0	0.04972619
250	0xbdf7796e	-0.12083708
251	0xbde483af	-0.11157929
252	0x3e212845	0.15738018
253	0x3dedb4a1	0.11606718
254	0xbd37db1c	-0.044886693
255	0xbe016d39	-0.12639321

model/dense_3/MatMul f4 [200, 100]
0	0xbc2235ab	-0.009900491
1	0xbdac6f12	-0.084196225
2	0x3d955c84	0.072930366
3	0x3bdf9fe4	0.0068244804
4	0xbd2495b0	-0.040181816
5	0x3db1dc2a	0.08684571
6	0xbd005651	-0.031332318
7	0xbdcb5b5a	-0.09929533
8	0x3daadd55	0.08342997
9	0x3d274e10	0.04084593
10	0xbc02279c	-0.007944014
11	0x3e02f899	0.12790145
12	0xbb817be6	-0.0039515374
13	0xbcbc2f55	-0.022971788
14	0xbc1797a6	-0.009252464
15	0x3e16beb3	0.14721183
16	0xbd30d14c	-0.04316835
17	0x3b04c844	0.002026097
18	0xbcaa2bfc	-0.020772927
19	0xbdd43342	-0.10361339
20	0x3db81e7c	0.089901894
21	0x3dd01147	0.101595454
22	0x3dc8c359	0.098028846
23	0xbc938f16	-0.018012565
24	0xbbb68b31	-0.005570792
25	0xbd7f7d23	-0.0623752
26	0xbc94ba03	-0.018155104
27	0xbd01e84d	-0.03171568
28	0xbd0fb9fa	-0.03508947
29	0xbd45645b	-0.04819141
30	0x3cef66a7	0.029223753
31	0xbcaa0c3c	-0.020757787
32	0x3c103094	0.008800644
33	0x3cad032b	0.021119675
34	0xbcfb1e9d	-0.030654246
35	0x39a15cc3	0.00030777426
36	0x3d261267	0.040544894
37	0x3e13e87e	0.14444157
38	0x3d3e0f70	0.04640144
39	0xbd24cf7f	-0.040236946
40	0xbd9cf834	-0.076645285
41	0x3cfd18c8	0.030895606
42	0x3e39d176	0.1814631
43	0x3e201593	0.1563323
44	0xbd5c189c	-0.053734407
45	0xbd90c8e1	-0.070695646
46	0x3caa3eeb	0.020781955
47	0xbc6757d5	-0.014120062
48	0x3da37c50	0.07982695
49	0x3e0f90a1	0.14020015
50	0x3b08abb6	0.00208543
51	0x3d289775	0.041160066
52	0x3e0dc5ba	0.13844958
53	0xbd2f1fe2	-0.042755015
54	0x3e19fb76	0.15037331
55	0xbd34a680	-0.0441041
56	0x3e087c76	0.13328728
57	0xbdf83e2b	-0.121212326
58	0xbe1345e7	-0.14382134
59	0xbdd4f9b6	-0.10399191
60	0x3d91abaa	0.071128204
61	0x3dbcf825	0.09227017
62	0x3d6eba4f	0.058283146
63	0x3d8c1a5f	0.068409674
64	0xbc26906a	-0.010166267
65	0x3d951d11	0.072809346
66	0xbdb69ed9	-0.089170165
67	0x3cd9c5aa	0.026583511
68	0x3db4913b	0.08816763
69	0x3da9bae9	0.082876034
70	0xbd5eea42	-0.054422624
71	0x3d369877	0.044578996
72	0xbdaee0ae	-0.08538948
73	0x3e077ea6	0.13231906
74	0x3deb1a00	0.114795685
75	0xbc463279	-0.012096995
76	0xbd334027	-0.043762352
77	0xbe0ca5f3	-0.1373518
78	0xbdd284ad	-0.10279212
79	0x3e1c48bd	0.15262122
80	0xbc3c4af1	-0.011492477
81	0x3dad6c4e	0.08467923
82	0xbcebc381	-0.028779747
83	0x3d4945de	0.049138896
84	0x3cf69473	0.030100083
85	0xbc14b49c	-0.009076264
86	0x3e1a4aff	0.15067671
87	0x3d910b93	0.07082286
88	0xbcd562c9	-0.026048081
89	0x3d7ac9de	0.06122767
90	0xbd2e0948	-0.04248932
91	0x3db925d2	0.09040417
92	0xbdf5e569	-0.12006647
93	0xbd95b87c	-0.07310578
94	0xbdf2af14	-0.118498
95	0xbc1ba1cd	-0.0094990255
96	0xbd9f4da1	-0.077784784
97	0x3e08ce87	0.13360034
98	0xbc91d6c9	-0.017802613
99	0x3e25c7e9	0.16189541
100	0x3db22bb2	0.086997405
101	0x3d9a518a	0.075350836
102	0xbda824bf	-0.08210134
103	0x3cf6adf5	0.030112246
104	0x3d65a770	0.056067884
105	0xbda2568a	-0.07926662
106	0xbe25182e	-0.16122505
107	0xbe146099	-0.14489974
108	0xbdb855ed	-0.09000764
109	0xbda0ad8d	-0.07845602
110	0xbcc0f31b	-0.023553422
111	0x3dedfba9	0.11620266
112	0x3d08647f	0.033298966
113	0xbda67930	-0.081285834
114	0x3d95516b	0.0729092
115	0x3d9cc4a7	0.07654696
116	0xbdb5b5b3	-0.08872547
117	0x3d71ebb0	0.05906266
118	0x3d198871	0.037483636
119	0xbe146bd3	-0.14494257
120	0x3d711330	0.05885619
121	0x3da57cc2	0.08080436
122	0xbe145d68	-0.14488757
123	0xbe12e7b3	-0.14346199
124	0x3de4d828	0.11174041
125	0xbd92c5b0	-0.07166612
126	0xbccc00e8	-0.024902776
127	0x3ddd1034	0.10794106
128	0xbdaf0f23	-0.08547809
129	0xbe1aad16	-0.1510509
130	0xbdbcfd22	-0.09227969
131	0x3c0f9fb0	0.0087661
132	0x3c3fa045	0.011695926
133	0xbe207761	-0.1567054
134	0x3cb5e5cf	0.022204308
135	0xbdc742e8	-0.09729558
136	0x3decae45	0.11556677
137	0xbe088529	-0.13332047
138	0xbd3900e8	-0.04516688
139	0xbdd0cfc9	-0.10195882
140	0xbda4a61b	-0.080394946
141	0xbd209831	-0.03920764
142	0xbd06ed27	-0.03294101
143	0x3de4aa92	0.11165346
144	0xbdeb1e6f	-0.11480414
145	0xbd6aed8c	-0.05735545
146	0x3d638a24	0.055551663
147	0x3d9de4d6	0.077096626
148	0xbd4a3bde	-0.0493735
149	0xbd911c87	-0.07085519
150	0x3c9befd3	0.019035256
151	0xbe0482c0	-0.12940502
152	0x3cab80fc	0.020935528
153	0x3d9e35cd	0.077251054
154	0xbe11096b	-0.14163749
155	0x3d303a61	0.043024424
156	0xbdf340de	-0.11877607
157	0xbe1c1265	-0.15241392
158	0xbd9cbad5	-0.07652823
159	0x3de79dda	0.11309405
160	0x3d16f37d	0.036853302
161	0xbe1204e3	-0.14259677
162	0xb9a27d65	-0.00030992474
163	0xbda22de7	-0.079189114
164	0xbb5ef0ea	-0.0034018108
165	0xbdc3c2b4	-0.09558621
166	0x3d3aa54d	0.0455678
167	0xbd49ee26	-0.04929938
168	0xbdf8b1e3	-0.12143304
169	0xbae9144b	-0.0017782537
170	0x3deddfce	0.11614953
171	0x3da7a404	0.081855804
172	0x3deb2341	0.114813335
173	0x3d0adeb8	0.033903807
174	0x3d059979	0.032617066
175	0x3e022465	0.12709196
176	0xbde4adb7	-0.11165946
177	0xbd59189d	-0.05300199
178	0xbc8a0e65	-0.016852567
179	0xb9bc418e	-0.00035906996
180	0xbe08e544	-0.13368708
181	0x3dcb4335	0.09924928
182	0xbd2e503e	-0.042556994
183	0xbd4d309f	-0.050095197
184	0x3d20a1cc	0.0392168
185	0x3d49043a	0.049076296
186	0xbba3a5d1	-0.004994132
187	0xbcfa908d	-0.030586505
188	0xbd40efe2	-0.04710377
189	0x3d9212b2	0.07132472
190	0x3d15f55c	0.036610946
191	0x3d8c8a11	0.068622716
192	0x3d2526b5	0.040320117
193	0xbd86845d	-0.06568215
194	0xbdb28110	-0.08716023
195	0x3d41ffe3	0.047363173
196	0x3cec6657	0.028857393
197	0xbe0d57ef	-0.13803075
198	0x3d2565d0	0.0403803
199	0x3df7a305	0.120916404
200	0x3d5e2549	0.054234777
201	0x3e113000	0.14178467
202	0x3d4a33b4	0.049365714
203	0x3d38aa2d	0.045084167
204	0x3d6b3202	0.057420738
205	0xbdb2594c	-0.08708438
206	0x3cc7bfc8	0.02438344
207	0xbdd5a8d6	-0.104325935
208	0x3e4af23a	0.19818965
209	0x3d150a80	0.036386967
210	0x3e0b29a9	0.13590111
211	0xbd124afe	-0.03571605
212	0xbd3c85f5	-0.04602619
213	0xbdb5e9c2	-0.088824764
214	0x3dd7335a	0.105078414
215	0x3df52b7a	0.11971183
216	0x3dbc455b	0.09192916
217	0x3d8ab639	0.067730375
218	0xbdb48d58	-0.08816022
219	0x3dc97eb2	0.09838618
220	0x3db149d2	0.08656658
221	0x3e1f8f28	0.15581954
222	0x3d114322	0.035464413
223	0x3dabdbbb	0.0839152
224	0xbd8acd6a	-0.06777461
225	0x3d9e9fa7	0.07745295
226	0x3d9a69b9	0.07539696
227	0x3e0e1e06	0.1387864
228	0x3d0435ee	0.032277994
229	0xbd03a0dd	-0.032135833
230	0x3e26a10a	0.16272369
231	0xbcb63453	-0.022241747
232	0xbdcab500	-0.09897804
233	0xbdb4ba88	-0.088246405
234	0x3da43328	0.0801757
235	0x3cb70f6d	0.022346223
236	0x3ca980de	0.020691331
237	0x3d3e35bd	0.046437968
238	0x3e031dc6	0.12804326
239	0x3e2b534e	0.16730997
240	0x3c9ae38a	0.018907327
241	0x3e153ad9	0.1457323
242	0x3ddec3d1	0.10877193
243	0x3d7bb145	0.061448354
244	0x3e066f55	0.13128407
245	0x3cd5b3a8	0.026086643
246	0x3dc9af36	0.09847872
247	0x3e09c71a	0.13454857
248	0xbd8b3756	-0.06797664
249	0xbdbfd282	-0.09366323
250	0x3db9b6b4	0.09068051
251	0x3dc239cf	0.09483682
252	0x3d2acfc9	0.041702066
253	0x3d6b1ef7	0.057402577
254	0xbd91e17b	-0.07123085
255	0x3cd1a5c4	0.025591739

model/dense_4/MatMul f4 [1, 200]
0	0x3e3366f8	0.17519748
1	0xbddb7415	-0.107155
2	0x3e0d9ec2	0.13830093
3	0x3e3915e3	0.18074755
4	0x3d99f050	0.07516539
5	0xbd43128e	-0.047625117
6	0xbdb0f7a1	-0.086409815
7	0x3b0a4120	0.0021095946
8	0xbdba83e3	-0.09107187
9	0x3dfbd4e9	0.12296469
10	0x3db5dfed	0.08880601
11	0x3d935583	0.071940444
12	0xbdb2e4a3	-0.08735015
13	0x3e15c893	0.14627294
14	0xbc865bc3	-0.016401177
15	0x3c2cbc90	0.010543004
16	0x3db2a978	0.0872373
17	0xbd8428d2	-0.06453098
18	0xbc86c96b	-0.016453465
19	0xbc5f95f6	-0.013646593
20	0xbe0a84db	-0.13527243
21	0x3e5d3575	0.21602423
22	0x3d025605	0.031820316
23	0xbcc14721	-0.023593487
24	0x3e179d77	0.14806162
25	0xbbb9f750	-0.005675234
26	0xbdbb173c	-0.09135291
27	0x3e2723e1	0.1632228
28	0xbdc37df2	-0.095455065
29	0xbdf7dd0f	-0.121027105
30	0x3e574925	0.21023996
31	0x3e0d28ad	0.13785048
32	0x3e04cae2	0.12968019
33	0x3d8986f0	0.067151904
34	0xbdfc25dc	-0.123119086
35	0xbddebeb7	-0.1087622
36	0x3e016470	0.1263597
37	0xbe0c12f9	-0.13679112
38	0x3d73b062	0.059494384
39	0x3daefe27	0.085445695
40	0x3d84afdf	0.06478857
41	0x3db50fce	0.08840905
42	0xbd8406ad	-0.06446586
43	0xbdb1a536	-0.086740896
44	0xbe013aa5	-0.12620027
45	0xbb92ca7c	-0.0044797044
46	0xbdd41be1	-0.1035688
47	0xbd77dbbe	-0.060512297
48	0xbe1b5793	-0.15170126
49	0x3e1f6a6f	0.15567945
50	0xbd9d574a	-0.07682665
51	0x3d7d0dad	0.06178062
52	0xbded8b2e	-0.11598812
53	0x3e05bbef	0.13059972
54	0xbd0efe7e	-0.03491067
55	0x3e269dc7	0.16271125
56	0x3a878742	0.0010339993
57	0x3dd8987f	0.10575961
58	0x3c138e67	0.009006119
59	0xbe0aac6d	-0.13542338
60	0x3d1d3624	0.03838171
61	0x3dfe8b81	0.12428952
62	0xbcdd4848	-0.027012005
63	0x3d46f459	0.04857287
64	0x3df8ecc7	0.12154537
65	0xbd78b9db	-0.06072412
66	0x3cfd3cc5	0.030912766
67	0xbca8dd46	-0.020613324
68	0x3d7435f3	0.059621762
69	0x3d9ab4e2	0.07554032
70	0xbdc90244	-0.09814885
71	0x3d948e54	0.072537094
72	0xbd7bdc91	-0.061489645
73	0xbd1c9c5c	-0.038235053
74	0x3dd820d2	0.10553135
75	0x3aef919b	0.0018277647
76	0xbd8a07a5	-0.06739739
77	0x3d008b4c	0.031382844
78	0x3d810a38	0.06300777
79	0xbc75361b	-0.014966513
80	0x3ddd2959	0.10798902
81	0x3dadea05	0.08491901
82	0xbce42e0e	-0.027853992
83	0x3d91c1e0	0.07117057
84	0x3d8953d3	0.06705441
85	0x3d149a3a	0.036279894
86	0x3d2fd69f	0.042929288
87	0x3deede7e	0.11663531
88	0x3d8f87e5	0.07008342
89	0xbd8ce58f	-0.06879722
90	0xbd1c322c	-0.038133785
91	0xbdab7cac	-0.08373389
92	0xbdc3da59	-0.09563131
93	0x3d8d5b34	0.06902161
94	0x3e1a45fe	0.15065762
95	0xbe1f2485	-0.15541275
96	0xbdce5440	-0.10074663
97	0x3e01596d	0.1263177
98	0xbda80eae	-0.08205925
99	0xbdebf5f9	-0.11521525
100	0xbb345c5c	-0.002752087
101	0xbd5abf3e	-0.05340504
102	0xbe17fa4c	-0.14841574
103	0x3c8bb257	0.017052813
104	0x3b6cab6d	0.003611292
105	0xbd4d0cc8	-0.050061017
106	0xbde94b37	-0.11391299
107	0x3e02e8e4	0.12784153
108	0xbe07dba1	-0.13267376
109	0x3e3c1796	0.18368372
110	0xbe0dbc30	-0.13841319
111	0x3e429d92	0.19005421
112	0x3e454e44	0.19268137
113	0x3d8afdc0	0.0678668
114	0xbd334b4a	-0.043772973
115	0x3e038ac3	0.12845902
116	0x3d88cfce	0.066802606
117	0xbe21cd68	-0.15801013
118	0xbdb0d4e6	-0.08634357
119	0xbe17e566	-0.14833602
120	0x3c0a44c4	0.008439247
121	0xbd5456e6	-0.051840685
122	0x3df90e75	0.121609606
123	0xbd816873	-0.0631875
124	0xbdfe3a50	-0.12413466
125	0xbd6ef5d8	-0.058339924
126	0x3ddff03b	0.10934492
127	0xbe000166	-0.12500533
128	0x3b636051	0.003469486
129	0xbdb2153b	-0.08695456
130	0x3d3b4c5d	0.045727123
131	0x3da26296	0.0792896
132	0x3e2a964a	0.16658893
133	0x3dcc09d4	0.09962812
134	0xbce26879	-0.027637707
135	0x3e3c37d6	0.18380675
136	0x3d594895	0.053047735
137	0x3e0c9a73	0.13730793
138	0x3dd330cc	0.10312042
139	0xbde4e238	-0.1117596
140	0x3db2d6ff	0.087324135
141	0xbdb176b3	-0.08665218
142	0xbe13b852	-0.14425781
143	0x3e128b7e	0.14311025
144	0x3cbc4e61	0.022986593
145	0xbd28f253	-0.041246723
146	0x3e3d0a43	0.18460946
147	0x3deb327b	0.11484238
148	0x3e46212d	0.19348593
149	0xbd3bba21	-0.045831803
150	0x3e2b94fa	0.16756049
151	0x3e009d80	0.12560081
152	0x3dd6a2ac	0.10480246
153	0xbdda8d2f	-0.1067146
154	0x3e1c083e	0.15237519
155	0x3df2ad2e	0.11849438
156	0x3d41574b	0.04720239
157	0xbd78ba8a	-0.060724773
158	0x3c12e649	0.008966037
159	0x3e152ec2	0.14568618
160	0x3c4850f7	0.012226335
161	0xbdf8b123	-0.12143161
162	0xbd83d1d7	-0.06436508
163	0x3e1fdecb	0.15612333
164	0x3db728d6	0.08943336
165	0xbe1aa610	-0.1510241
166	0xbe2888a6	-0.16458377
167	0xbda5158c	-0.0806075
168	0xbd47970b	-0.04872803
169	0x3e00d5e1	0.12581588
170	0x3e040be6	0.12895164
171	0x3dd30cc1	0.10305167
172	0x3d233a1e	0.039850347
173	0xbe0e6d1f	-0.13908814
174	0xbdd2d2c1	-0.10294104
175	0xbda64d0a	-0.08120163
176	0xbe0ea546	-0.13930234
177	0x3d8df859	0.06932134
178	0x3d8c0586	0.06836991
179	0xbd1f1cf9	-0.03884599
180	0xbc0a174d	-0.008428407
181	0x3e32aec2	0.17449477
182	0x3cee5beb	0.029096564
183	0xbdc3784f	-0.095444314
184	0x3e06ceb0	0.13164783
185	0x3e1435fd	0.1447372
186	0xbc97b9d5	-0.018521229
187	0xbd882933	-0.06648483
188	0xbc4d8e8e	-0.012546195
189	0xbd407e3e	-0.046995394
190	0xbc3952f3	-0.011311281
191	0x3d8f5fc0	0.07000685
192	0x3d0049a3	0.031320225
193	0xbd418524	-0.047246113
194	0x3d397139	0.045273993
195	0x3dffe890	0.1249553
196	0xbe0c13ff	-0.13679503
197	0xbdd81065	-0.10550002
198	0x3da68c59	0.08132238
199	0xbe0a7b88	-0.13523686
