haepe.tflite (tflite, 151952 bytes, 9 tensors)

model/dense/BiasAdd/ReadVariableOp f4 [46]
-0.015059028 -0.015363535 -0.0033746203 0.0010473198 0.0051717055 -0.021412734 -0.010811913 -0.0021735562
-0.006331706 0.027685115 0.019119363 -0.02844792 -0.031956807 -0.005264604 -0.008068132 -0.008818184
-0.0031910534 0.002451531 -0.011358041 0.002362006 -0.012133574 0.0049205553 0.009553976 -0.0065051476
0.001010581 0.00907569 -0.0073622786 -0.026419938 -0.025699168 0.02187641 0.016614055 -0.0022466665
0.00960134 -0.02187795 0.0042847735 -0.006749486 -0.03743625 0.036376126 -0.0031822415 -0.010405543
0.03692574 -0.0042710225 -0.0070089237 -0.0057695396 0.0032848252 -0.02653228
00000000: 24ba 76bc 56b7 7bbc bc28 5dbb 3946 893a
00000010: 6977 a93b c269 afbc 7324 31bc 3972 0ebb
00000020: 337a cfbb e5cb e23c 36a0 9c3c 9d0b e9bc
00000030: 24e5 02bd b382 acbb 3330 04bc 257a 10bc
00000040: fe20 51bb dda9 203b 1417 3abc e3cb 1a3b
00000050: e6cb 46bc 9c3c a13b 4888 1c3c 2229 d5bb
00000060: 7975 843a 34b2 143c 453f f1bb a06e d8bc
00000070: 1087 d2bc 2836 b33c 331a 883c cf3c 13bb
00000080: f04e 1d3c 6339 b3bc 4967 8c3b cb2a ddbb
00000090: c156 19bd 22ff 143d 278d 50bb 037c 2abc
000000a0: 723f 173d eff3 8bbb 1dab e5bb 680e bdbb
000000b0: 3946 573b 395a d9bc

model/dense_3/BiasAdd/ReadVariableOp f4 [200]
0.0650901 0.0054907715 0.005114308 -0.00698628 -0.015294427 0.004426081 -0.01509856 -0.015865855
-0.010173345 -0.028645564 -0.015060613 0.01262315 -0.00769243 0.004742982 -0.015893163 -0.02085899
-0.011591984 0.006337351 0.0059766825 0.0026572074 0.004995474 -0.0147024775 -0.012265024 -0.014317476
0.005406068 -0.011846025 0.0029676158 0.012059036 0.0020794335 -0.0136346975 -0.016475115 0.009162089
-0.02360901 -0.00086994056 -0.014826247 -0.043413255 -0.016410388 -0.01168422 0.002265991 -0.017712453
0.0045203837 -0.008169739 0.0042825295 0.0054061925 0.0011596367 0.008137576 -0.023286404 0.005689784
0.00062829186 0.0069826324 -0.01825819 -0.019957272 0.00595589 0.04600964 0.005054137 0.0072649037
-0.012624808 0.00043128515 0.0042133327 -0.009862507 0.00635512 -0.010109758 0.007434811 -0.0024395257
0.02795372 -0.016705338 0.0021340186 -0.016001182 -0.021824714 0.003229756 0.0033368752 -0.01015239
-0.020386 0.0040275287 0.0065682945 -0.0025173724 0.006402943 -0.0009739561 -9.163487e-05 -0.014417467
0.005461787 0.0049937484 -0.014616692 -0.011541769 0.0026907797 -0.01688401 0.081097044 0.0075285262
-0.006383989 0.0023492181 -0.01681519 -0.016891982 0.0068369447 -0.013171659 0.013497021 0.0022548756
0.005952362 -0.007323493 -0.016877174 0.036653213 -0.007693444 -0.008976025 0.009411866 -0.014297223
-0.0016813066 0.047466423 -0.010575763 -0.008136828 -0.011099142 0.0037463729 0.03430203 0.0063202023
0.0 0.011018392 -0.023736106 0.0060218857 -0.004328502 0.0027918678 -4.398832e-06 0.04410277
-0.01580337 0.0042050905 0.005359572 -0.037261795 -0.010931736 0.0062570833 -0.025462432 -0.009296147
0.0066876817 0.0013797086 0.004067108 -0.020928817 -0.013676104 -0.02872494 -0.024167357 0.059463132
-0.017825793 0.012643789 0.0039887964 -0.0032799218 0.00027663936 0.017224781 0.0055693276 -0.010072549
-0.010172528 0.006918251 0.0026389258 -0.019881759 0.006556619 -0.015461704 -0.0038787036 -0.017575022
-0.019320687 0.011822673 -0.013711539 -0.019209493 -0.01905102 0.003994584 0.024307499 0.0077004745
0.0076073506 -0.0047714063 -0.012305514 -0.019732127 -0.011601721 -0.0019698716 -0.004548753 0.03655852
-0.0049612815 -0.0060047046 0.025784459 0.007627223 -0.019307926 -0.009757122 -0.0026206009 0.0059367483
-0.014409372 -0.010821839 0.005361843 -0.00115681 0.004949308 -0.02112082 0.0067060157 0.0056523466
0.008686857 -0.012776319 0.0016268616 0.007298644 -0.022925705 0.0055815885 0.008184318 0.0075059137
-0.035752714 0.0077024437 0.008647571 -0.008242824 0.007545581 -0.0029845084 0.007400984 0.0073621785
00000000: f54d 853d eeeb b33b ed95 a73b 2aed e4bb
00000010: 7a95 7abc a908 913b f35f 77bc 1cf9 81bc
00000020: 1aae 26bc 1aaa eabc cac0 76bc 54d1 4e3c
00000030: c810 fcbb 046b 9b3b 6132 82bc 79e0 aabc
00000040: 4eec 3dbc 8ea9 cf3b 0cd8 c33b 8b24 2e3b
00000050: 13b1 a33b a9e2 70bc 3df3 48bc d993 6abc
00000060: 6325 b13b d415 42bc 557c 423b 4393 453c
00000070: 1b47 083b 1164 5fbc d2f6 86bc 961c 163c
00000080: af67 c1bc b90c 64ba c9e9 72bc 19d2 31bd
00000090: 146f 86bc 2c6f 3fbc 0581 143b b519 91bc
000000a0: ba1f 943b 5eda 05bc 7654 8c3b 6e26 b13b
000000b0: f3fe 973a 7853 053c 21c3 bebc 5e71 ba3b
000000c0: f4b3 243a 91ce e43b 3392 95bc 6f7d a3bc
000000d0: a029 c33b 9b74 3c3d 2d9d a53b 6e0e ee3b
000000e0: 48d8 4ebc 1d1e e239 ff0f 8a3b 5a96 21bc
000000f0: 9c3e d03b 66a3 25bc b79f f33b 73e0 1fbb
00000100: 33ff e43c a2d9 88bc e4da 0b3b e914 83bc
00000110: bec9 b2bc 50aa 533b 7aaf 5a3b 3656 26bc
00000120: 8a00 a7bc 5cf9 833b d93a d73b 80fa 24bb
00000130: c7cf d13b 1651 7fba 192c c0b8 3d37 6cbc
00000140: caf8 b23b 99a2 a33b da7a 6fbc b019 3dbc
00000150: cb57 303b 5650 8abc 3516 a63d dbb1 f63b
00000160: c830 d1bb 57f5 193b 02c0 89bc 0e61 8abc
00000170: 7308 e03b f1cd 57bc 9c22 5d3c 89c6 133b
00000180: 080c c33b e9f9 efbb 0042 8abc ae21 163d
00000190: 4919 fcbb 2d10 13bc 3a34 1a3c e63e 6abc
000001a0: 4a5f dcba 276c 423d f745 2dbc 5550 05bc
000001b0: 2dd9 35bc b585 753b 4980 0c3d b319 cf3b
000001c0: 0000 0000 7c86 343c 3972 c2bc 3d53 c53b
000001d0: 1bd6 8dbb c5f7 363b ae99 93b6 1ba5 343d
000001e0: 1276 81bc dbca 893b 599f af3b d39f 18bd
000001f0: 061b 33bc 3808 cd3b 9796 d0bc de4e 18bc
00000200: 5724 db3b 57d7 b43a 6045 853b e972 abbc
00000210: bd11 60bc 9150 ebbc 9ffa c5bc 9d8f 733d
00000220: 6607 92bc e527 4f3c 73b4 823b f5f3 56bb
00000230: e809 9139 fc1a 8d3c e87e b63b 5507 25bc
00000240: adaa 26bc 7fb2 e23b d4f1 2c3b 12df a2bc
00000250: e8d8 d63b 1653 7dbc d931 7ebb 7ef9 8fbc
00000260: 6b46 9ebc e2b3 413c 5da6 60bc 3a5d 9dbc
00000270: e210 9cbc 00e5 823b 8520 c73c 4354 fc3b
00000280: 1547 f93b 7559 9cbb 119d 49bc 45a5 a1bc
00000290: 2515 3ebc f618 01bb b50d 95bb 63be 153d
000002a0: 3f92 a2bb 1dc3 c4bb ee39 d33c c9ed f93b
000002b0: a82b 9ebc 56dc 1fbc 63be 2bbb 0e89 c23b
000002c0: 4915 6cbc 154e 31bc 66b2 af3b 1aa0 97ba
000002d0: ce2d a23b 9205 adbc 23be db3b 5237 b93b
000002e0: 5253 0e3c c453 51bc 6b3c d53a 7729 ef3b
000002f0: b0ce bbbc c2e5 b63b 8517 063c 2bf4 f53b
00000300: 7071 12bd c864 fc3b 8bae 0d3c e90c 07bc
00000310: ec40 f73b be97 43bb f483 f23b 6e3e f13b

model/dense_2/BiasAdd/ReadVariableOp f4 [100]
-0.0035564625 -0.017453188 -0.02750606 -0.036546018 -0.017314933 -0.022025522 9.734607e-05 -0.018829113
-0.04298093 -0.0035543162 0.0034170349 0.0039775367 0.035073955 0.0019005059 -0.008131747 0.02144182
-0.044487815 0.030373987 0.025391685 0.023896009 -0.018146083 -0.009793981 -0.021563603 -0.024460329
0.0037419992 0.004242221 0.0020754351 -0.030402921 0.0033004684 0.018696243 -0.0014195264 0.0028027743
-0.043858644 -0.035345666 -0.036440905 0.01088671 -0.009261047 0.03052465 -0.023793943 -0.020171335
-0.0131928 0.0040442864 -0.016132997 0.004188911 -0.0011884354 0.012119697 -0.016896317 -0.012032453
-0.015504683 0.0058366335 -0.018911678 -0.0009648044 -0.0039023992 -0.00034389715 -0.013669161 -0.023438329
-0.024740063 -0.006722709 -0.00096995453 -0.0048630456 0.011012066 -0.0016941775 0.007940094 0.0003815313
-0.0058511123 -0.011287952 -0.018292343 0.025498021 -0.0069271107 0.008022894 -0.0052433577 0.0057023983
-0.009158611 0.0013051266 -0.0019580552 -0.0032915145 -0.037988067 -0.0039721103 -0.0102992 -0.009246552
-0.0044433665 -0.020519644 -0.011932669 -0.022708632 -0.012941728 -0.016710188 0.021658022 0.011523367
0.0024307754 -0.0024943824 -0.031598296 0.0033124546 -0.007479747 -0.017698696 -0.00662833 0.009874923
-0.013387436 -0.00067628664 0.008021459 0.0025107204
00000000: 8a13 69bb fdf9 8ebc 6454 e1bc 47b1 15bd
00000010: 0cd8 8dbc de6e b4bc 4626 cc38 833f 9abc
00000020: c60c 30bd 88ef 68bb 55f0 5f3b ff55 823b
00000030: b5a9 0f3d 651a f93a 053b 05bc c1a6 af3c
00000040: db38 36bd ded2 f83c 3902 d03c 90c1 c33c
00000050: 18a7 94bc ef76 20bc 27a6 b0bc 0761 c8bc
00000060: 543c 753b 5402 8b3b 0604 083b 8c0f f9bc
00000070: ac4c 583b dd28 993c 670f baba c0ae 373b
00000080: 1fa5 33bd 9ec6 10bd 0f43 15bd 2c5e 323c
00000090: a5bb 17bc d50e fa3c 84eb c2bc 5b3e a5bc
000000a0: 9d26 58bc ef85 843b 5929 84bc 2243 893b
000000b0: 46c5 9bba b291 463c 256a 8abc c423 45bc
000000c0: 5b07 7ebc 3b41 bf3b aaec 9abc edea 7cba
000000d0: 65bf 7fbb 184d b4b9 9ef4 5fbc bd01 c0bc
000000e0: acab cabc 2c4a dcbb 8c44 7eba 2f5a 9fbb
000000f0: f46b 343c 2a0f deba 2b17 023c 4408 c839
00000100: b0ba bfbb 1af1 38bc d3d9 95bc 3ae1 d03c
00000110: d1fc e2bb 7572 033c 79d0 abbb 2fdb ba3b
00000120: 000e 16bc c810 ab3a b752 00bb 73b6 57bb
00000130: 6099 1bbd 7a28 82bb fabd 28bc da7e 17bc
00000140: a999 91bb d018 a8bc 3e81 43bc 7407 babc
00000150: 8b09 54bc cee3 88bc 2a6c b13c 81cc 3c3c
00000160: a54d 1f3b cb78 23bb 376d 01bd c415 593b
00000170: aa18 f5bb dbfc 90bc 7632 d9bb 6eca 213c
00000180: fa56 5bbc d448 31ba 706c 033c e68a 243b

model/dense_1/BiasAdd/ReadVariableOp f4 [100]
-0.025125096 -0.0024145835 0.009805529 -0.006034952 -0.024590539 -0.009023106 -0.03044845 -0.009364322
-0.015768396 0.006305309 0.0029830865 -0.019613484 -0.0052149342 0.004017612 -0.031446286 -0.0034528226
0.03190318 0.002092906 -0.014181914 0.004986629 0.01720693 -0.023032775 -0.0046127387 -0.01938741
0.0064768875 0.006403257 0.0025733667 0.0 -0.0063084154 -0.018670537 0.00661821 0.018198302
0.009519658 0.013129172 0.010683432 -0.01497799 -0.007082553 0.008651235 0.008394666 -0.02216421
-0.001058892 -0.008566743 -0.018390274 -0.038211696 -0.010462577 0.00040783087 -0.023483464 -0.002513984
0.008445311 -0.010818897 -0.021580588 -0.0074735563 -0.020642256 0.009112772 -0.031639982 0.0014066824
0.02539962 -0.0023261502 0.0027889807 -0.01380607 -0.0063661532 -0.017589452 -0.02009218 -0.0075093596
0.024446651 -0.033801183 -0.0028544317 0.025992816 -0.024948567 -0.008884555 0.0040424583 0.0044970824
0.010865749 -0.01982962 -0.012393845 -0.011000905 0.0045901607 0.008619817 -0.011053789 -0.016746001
-0.016651738 -0.018438105 -0.013519255 -0.0002616612 0.0042541507 0.0021400857 0.0010358422 0.007374143
-0.028730275 -0.03237955 -0.019835014 -0.007285296 0.009323869 -0.021533309 0.02655156 -0.013491348
0.0029810125 -0.007317229 -0.032464493 -0.03207199
00000000: 25d3 cdbc fd3d 1ebb 5fa7 203c d9c0 c5bb
00000010: 1972 c9bc a6d5 13bc 076f f9bc d06c 19bc
00000020: b92c 81bc c49c ce3b e37f 433b 75ac a0bc
00000030: 0ae2 aabb 2ca6 833b d2cd 00bd c048 62bb
00000040: e9ac 023d 2329 093b 425b 68bc e066 a33b
00000050: 8cf5 8c3c 3baf bcbc 7526 97bb 58d2 9ebc
00000060: 123c d43b 6ad2 d13b eea5 283b 0000 0000
00000070: d3b6 cebb f4f2 98bc 92dd d83b 9b14 953c
00000080: 57f8 1b3c bd1b 573c 9009 2f3c 3e66 75bc
00000090: c314 e8bb e9bd 0d3c c889 093c b891 b5bc
000000a0: 85ca 8aba 865b 0cbc 33a7 96bc de83 1cbd
000000b0: 3b6b 2bbc 22d2 d539 6560 c0bc a7c1 24bb
000000c0: 345e 0a3c be41 31bc c6c9 b0bc bce4 f4bb
000000d0: f319 a9bc bc4d 153c ed98 01bd 6e60 b83a
000000e0: dd12 d03c 5372 18bb 55c7 363b db32 62bc
000000f0: 2a9b d0bb c117 90bc 5b98 a4bc 1311 f6bb
00000100: 5844 c83c 1c73 0abd 6b11 3bbb e3ee d43c
00000110: f060 ccbc 8690 11bc 9976 843b 435c 933b
00000120: 4106 323c ba71 a2bc 8e0f 4bbc 243d 34bc
00000130: 0f69 963b 223a 0d3c f41a 35bc e92e 89bc
00000140: 3a69 88bc 820b 97bc de7f 5dbc 922f 89b9
00000150: 6766 8b3b ae40 0c3b 19c5 873a cca2 f13b
00000160: c15b ebbc 6ba0 04bd 0a7d a2bc 7eb9 eebb
00000170: 24c3 183c 9f66 b0bc a882 d93c d10a 5dbc
00000180: 175d 433b 5ec5 efbb 7df9 04bd eb5d 03bd

model/dense/MatMul f4 [46, 46]
0.21888871 0.27820283 0.0743095 -0.13618904 0.13008003 0.014359606 0.20382555 -0.21034154
0.17213094 -0.17522173 -0.17349955 0.2438542 -0.10965142 0.0052562207 -0.17312682 -0.013409801
0.042732015 -0.20628501 -0.057828765 0.20763387 0.010613974 0.20418878 0.18594325 -0.10487163
-0.009643093 -0.26698008 0.09135533 -0.056211922 0.19877185 -0.027080458 -0.230202 0.06533241
-0.11197631 0.20265491 0.2290119 -0.15037687 0.21281132 0.0053774295 -0.14875604 -0.08341103
0.18850023 0.10704475 -0.2917346 0.23835523 -0.005856949 -0.09592844 -0.06956928 -0.19123602
0.03259619 0.10028911 -0.2549246 -0.15089554 0.076401554 -0.15100239 -0.050671462 -0.14560853
-0.022288078 0.024115462 0.11982002 -0.19743454 -0.21505812 0.06553761 0.068271905 -0.01748669
-0.11515447 -0.27746493 0.17875592 -0.12583403 -0.31087893 0.23942693 -0.19091856 0.033476673
-0.09391589 0.018568298 0.16800709 0.19421776 0.10258922 0.26286408 -0.2963401 0.0644686
0.043578424 -0.15408304 0.11549494 0.2686004 0.05473816 -0.012417495 0.11498402 0.10001988
0.15753023 -0.15535882 0.33873254 0.16146395 -0.065910876 0.09111156 -0.10225116 0.21457556
-0.1895031 0.014156307 0.05591195 -0.0011216335 -0.2436438 -0.04307459 -0.020971607 0.08653686
-0.15196435 -0.2127907 0.24192673 0.06538066 0.13618705 0.19435437 0.045828395 -0.037680145
-0.08411618 0.2889591 0.27659586 -0.041291438 0.041363243 0.046352796 -0.22321609 0.2069197
0.28490177 -0.023890667 -0.15762007 0.15191236 -0.14760125 0.2240908 0.052872453 0.080918215
-0.15151162 0.16244826 0.10161522 0.08568921 0.027495274 -0.26499656 0.19202547 0.11717257
-0.10011287 0.22412571 0.13589232 0.24263811 -0.21061634 0.16202062 -0.16023457 0.22330533
0.16357312 -0.101045705 0.04472224 0.03911159 -0.09700527 -0.18348789 -0.055783205 -0.010275836
0.10360332 0.1679961 -0.24808805 -0.06217116 0.039201736 -0.12299401 0.18780157 0.22116897
-0.054000963 0.1669655 -0.25414756 -0.24512257 -0.19527598 -0.0028500212 -0.14305364 0.1699912
-0.053782865 0.08926423 0.24050431 -0.024903685 -0.22784962 -0.023752406 -0.001248304 0.094411045
0.2684351 0.04468748 -0.26776585 -0.050017614 0.12327482 0.24380186 -0.13003571 0.21147913
-0.10061027 0.15483625 -0.33183205 0.13462093 0.2426356 -0.09095821 -0.22782676 -0.038406584
-0.058331996 -0.05293175 0.19970246 0.061815087 -0.024364106 0.09737533 -0.1002672 0.20354307
-0.23635668 0.06622303 -0.21403761 -0.076994404 -0.13186581 0.13367768 0.005498204 -0.10387868
-0.20077582 -0.20033254 -0.027461842 -0.09658757 -0.18425478 0.12568949 0.103919744 0.016369553
-0.01598625 0.12541245 -0.14872652 0.0380685 -0.28536347 -0.104446575 -0.057483014 0.15725823
0.18270217 -0.14689474 0.19185962 0.17926541 -0.22709282 -0.035250027 0.07711058 0.2164252
-0.13211319 0.025483914 0.12635079 -0.10466799 -0.009250282 -0.31118163 0.05269456 -0.31056267
-0.14275952 -0.118060246 -0.08424448 -0.16482984 -0.12068718 0.24936366 -0.10834146 0.20100641
0.15462972 -0.1312676 -0.17341453 -0.20017833 -0.08970068 -0.15387061 -0.10459888 0.1013244
00000000: 5d24 603e 9a70 8e3e 942f 983d 2475 0bbe
00000010: b333 053e 8e44 6b3c a5b7 503e c663 57be
00000020: 1843 303e 536d 33be dea9 31be eab4 793e
00000030: ec90 e0bd 603c ac3b 2848 31be c8b4 5bbc
00000040: c407 2f3d 613c 53be dbdd 6cbd f99d 543e
00000050: 3ce6 2d3c dd16 513e e867 3e3e f0c6 d6bd
00000060: 10fe 1dbc 9db1 88be 8118 bb3d 793e 66bd
00000070: d98a 4b3e d6d7 ddbc 13ba 6bbe 00cd 853d
00000080: d653 e5bd c584 4f3e 1882 6a3e 65fc 19be
00000090: 36eb 593e 2635 b03b 8153 18be 67d3 aabd
000000a0: 3406 413e 473a db3d 3d5e 95be 6513 743e
000000b0: a6eb bfbb 2176 c4bd 577a 8ebd 60d3 43be
000000c0: 9583 053d 6064 cd3d 7a85 82be 5c84 1abe
000000d0: 6b78 9c3d 5fa0 1abe e18c 4fbd 671a 15be
000000e0: 7d95 b6bc ca8d c53c 3364 f53d 482c 4abe
000000f0: 3238 5cbe 9538 863d 24d2 8b3d 3f40 8fbc
00000100: 1bd6 ebbd e20f 8ebe cb0b 373e a3da 00be
00000110: 862b 9fbe 552c 753e 2880 43be d61e 093d
00000120: f956 c0bd 8b1c 983c 0d0a 2c3e 05e1 463e
00000130: 4c1a d23d 1f96 863e e4b9 97be 1d08 843d
00000140: 4a7f 323d f2c7 1dbe 9c88 ec3d fe85 893e
00000150: 1f35 603d c072 4bbc be7c eb3d 39d7 cc3d
00000160: 9b4f 213e 6216 1fbe 5a6e ad3e ce56 253e
00000170: 48fc 86bd b398 ba3d 0e69 d1bd b2b9 5b3e
00000180: 1a0d 42be dbef 673c ee03 653d c603 93ba
00000190: c37d 79be fb6e 30bd a6cc abbc 3d3a b13d
000001a0: 8b9c 1bbe cee5 59be a4bb 773e 4ce6 853d
000001b0: 9e74 0b3e d504 473e 8eb6 3b3d 7f56 1abd
000001c0: 1b45 acbd 72f2 933e f99d 8d3e 3621 29bd
000001d0: 816c 293d 6edc 3d3d c292 64be c2e2 533e
000001e0: a5de 913e 5cb6 c3bc 2867 21be ea8e 1b3e
000001f0: c824 17be 0f78 653e c990 583d 73b8 a53d
00000200: dd25 1bbe d658 263e a41b d03d d37d af3d
00000210: c53d e13c a1ad 87be 53a2 443e 2cf8 ef3d
00000220: fa07 cdbd 3681 653e 5b27 0b3e 2076 783e
00000230: cfab 57be bce8 253e 8814 24be 27aa 643e
00000240: b67f 273e 0df1 cebd ab2e 373d 7933 203d
00000250: b3aa c6bd 40e4 3bbe ee7c 64bd fb5b 28bc
00000260: fa2d d43d 2b07 2c3e cb0a 7ebe 30a7 7ebd
00000270: 0092 203d 49e4 fbbd 0e4f 403e 1e7a 623e
00000280: 1d30 5dbd 01f9 2a3e a11f 82be 6901 7bbe
00000290: 6df6 47be 6cc7 3abb a77c 12be 2c12 2e3e
000002a0: 6c4b 5cbd 2ad0 b63d c346 763e d002 ccbc
000002b0: 6951 69be 6894 c2bc 229e a3ba 945a c13d
000002c0: 5370 893e 380a 373d 9b18 89be 45df 4cbd
000002d0: 8277 fc3d 32a7 793e 1528 05be fc8d 583e
000002e0: c20c cebd 658d 1e3e e4e5 a9be 12da 093e
000002f0: 7775 783e 4c48 babd 6b4b 69be 3950 1dbd
00000300: 88ed 6ebd f6ce 58bd cd7e 4c3e d131 7d3d
00000310: 3c97 c7bc b86c c73d e458 cdbd 986d 503e
00000320: 7c07 72be f19f 873d ad2c 5bbe 3eaf 9dbd
00000330: d507 07be cde2 083e 472a b43b 58be d4bd
00000340: 2d98 4dbe f923 4dbe a8f7 e0bc b4cf c5bd
00000350: 49ad 3cbe bfb4 003e e0d3 d43d 7119 863c
00000360: 99f5 82bc 1f6c 003e c44b 18be b7ed 1b3d
00000370: 291b 92be 16e8 d5bd 4f73 6bbd 4d08 213e
00000380: 4716 3b3e 936b 16be d976 443e 5a91 373e
00000390: 058b 68be 5562 10bd 27ec 9d3d 919e 5d3e
000003a0: ae48 07be a4c3 d03c 1a62 013e 2c5c d6bd
000003b0: 7f8e 17bc 3353 9fbe 40d6 573d 1202 9fbe
000003c0: 8d2f 12be 92c9 f1bd 5f88 acbd 27c9 28be
000003d0: d72a f7bd 3059 7f3e 21e2 ddbd a0d4 4d3e
000003e0: 4157 1e3e 046b 06be 9493 31be 8cfb 4cbe
000003f0: fdb4 b7bd 4290 1dbe f037 d6bd 2b83 cf3d

model/dense_1/MatMul f4 [100, 46]
-0.21351965 0.105068736 -0.0033835697 -0.21080263 0.095458105 -0.20147428 -0.15765834 -0.07944156
-0.11219578 -0.123598255 0.013224263 0.032541223 0.11769011 -0.26839712 0.017900947 0.087885186
0.1271352 0.09854739 0.010621109 -0.098497845 -0.07522845 -0.04836721 0.12847725 0.08900666
-0.20697762 -0.0019939106 -0.020373497 -0.023246689 -0.23401381 -0.017813094 0.072829194 0.06335726
0.07948277 0.112272516 0.14523509 0.059414893 -0.24608664 -0.17592958 -0.046967838 0.03932255
0.15570365 -0.0005806634 -0.1625697 0.15867378 -0.020340785 0.12297367 0.0839001 0.14905071
0.17503819 0.14701991 0.09614515 0.116593175 -0.07773789 0.09735912 0.11289257 -0.23865314
-0.13282382 -0.08801691 -0.02035589 0.09563137 0.17768323 0.089012414 0.09579985 0.06719406
0.12212187 -0.10915355 0.10091758 0.023541886 -0.06827413 -0.12386476 -0.17686202 -0.03536607
-0.20946495 0.0647851 0.15755531 -0.11967097 0.21477902 0.16429542 0.0047001676 0.14021458
0.0926994 0.14808555 0.14782578 0.23298858 0.08644216 -0.008823313 0.16416612 -0.015284498
-0.12615995 0.03402266 -0.13768892 0.10766269 -0.07772553 -0.080066524 -0.11161347 -0.11900394
0.29752824 0.18156491 -0.022703933 0.023273462 -0.14257202 -0.14684157 0.016646322 0.045118004
0.08328259 -0.13139957 -0.14391935 -0.18951242 -0.24571082 -0.04552652 -0.14818764 -0.12565428
0.25396213 -0.10409401 0.1416142 -0.039488778 -0.32485816 0.08739252 -0.07290501 0.0032896926
0.20109434 -0.25467184 0.058988504 -0.018992702 0.008019307 0.11852954 0.10725363 0.13646284
-0.121082336 0.0006943762 0.22365166 0.061074436 0.08353533 -0.1500791 0.12683795 0.23616868
-0.12509741 0.12439102 -0.06483158 -0.16577506 -0.0062971683 0.07864777 0.035530522 0.024866596
-0.064472705 -0.12576105 -0.28640127 0.1524419 0.08531155 -0.06807202 -0.12279359 -0.08956366
0.1702201 -0.20292075 0.15616994 -0.0017772537 -0.1468571 -0.15011843 -0.012273779 -0.0043570916
-0.03878303 -0.23921706 -0.026008978 0.13049765 -0.038228415 -0.04604159 0.02721689 0.0049389545
0.09763172 -0.071741454 0.21012864 -0.2212258 0.04254474 -0.14209513 -0.08892734 0.16930263
0.043412134 0.15688665 0.044497486 -0.17616564 0.0076114126 0.13283437 0.2107311 0.034184776
0.1908452 0.083527215 -0.15350996 -0.19409159 -0.21759184 -0.14306024 0.15361449 0.097365685
-0.04432625 0.25049147 0.052290916 -0.12074226 0.1786889 -0.2660283 -0.086483926 0.11056003
0.008713535 -0.0045816083 0.042209696 -0.123556875 -0.15472807 -0.007870291 0.0042212685 -0.19060166
0.10184227 0.07909359 0.094921865 0.03894722 -0.1323733 0.15143578 0.1836309 0.06177121
0.039905965 -0.046606317 0.09777259 0.15362173 0.016725693 -0.25201014 0.043641947 0.2285977
-0.13917623 -0.1284934 0.04890518 -0.20529184 -0.07566062 -0.1740965 0.07307841 -0.0024892904
-0.18256442 0.0794166 -0.06314523 0.09645796 -0.02419514 -0.06880714 -0.032543976 0.00977085
0.16908231 0.08126637 0.02041544 -0.21261536 0.1288193 -0.14266814 0.11190817 -0.1841723
-0.22248824 -0.059869725 -0.013020969 0.29744878 -0.15728942 0.16558579 0.0035044104 -0.07747968
00000000: e5a4 5abe 472e d73d e1be 5dbb a5dc 57be
00000010: 8a7f c33d 464f 4ebe 3071 21be 42b2 a2bd
00000020: e7c6 e5bd 1521 fdbd 94aa 583c f249 053d
00000030: 8307 f13d 596b 89be 02a5 923c 26fd b33d
00000040: bb2f 023e 37d3 c93d 2904 2e3c 3db9 c9bd
00000050: 6011 9abd b21c 46bd 8a8f 033e 2049 b63d
00000060: f1f1 53be 45ac 02bb 52e6 a6bc d76f bebc
00000070: 51a1 6fbe c4ec 91bc 7927 953d 73c1 813d
00000080: ddc7 a23d 22ef e53d 82b8 143e 085d 733d
00000090: 23fe 7bbe e226 34be 5961 40bd af10 213d
000000a0: c770 1f3e a937 18ba ac78 26be 617b 223e
000000b0: b8a1 a6bc 9fd9 fb3d d1d3 ab3d c0a0 183e
000000c0: 363d 333e 638c 163e c0e7 c43d 67c8 ee3d
000000d0: 0b35 9fbd 3864 c73d 3834 e73d 7d61 74be
000000e0: f802 08be 3642 b4bd 65c1 a6bc 61da c33d
000000f0: 98f2 353e 244c b63d b632 c43d 0a9d 893d
00000100: 081b fa3d e58b dfbd e0ad ce3d eada c03c
00000110: 4fd3 8bbd cfac fdbd 511b 35be 03dc 10bd
00000120: fb7d 56be 0dae 843d 2e56 213e 0e16 f5bd
00000130: 08ef 5b3e 0f3d 283e dd03 9a3b 6994 0f3e
00000140: 2fd9 bd3d bda3 173e a45f 173e 8f94 6e3e
00000150: 9608 b13d a88f 10bc 2a1b 283e d56b 7abc
00000160: 1330 01be 585b 0b3d 53fe 0cbe 427e dc3d
00000170: 902e 9fbd ebf9 a3bd 9a95 e4bd 56b8 f3bd
00000180: 9f55 983e 27ec 393e 99fd b9bc fda7 be3c
00000190: 66fe 11be a35d 16be de5d 883c a8cd 383d
000001a0: 1090 aa3d 9c8d 06be 985f 13be 8b0f 42be
000001b0: 9e9b 7bbe 047a 3abd 80be 17be 84ab 00be
000001c0: 5307 823e 3e2f d5bd 5003 113e fcbe 21bd
000001d0: cf53 a6be d9fa b23d 394f 95bd e297 573b
000001e0: adeb 4d3e 5964 82be ee9d 713d 9596 9bbc
000001f0: 6963 033c 9ebf f23d cba7 db3d eabc 0b3e
00000200: 04fa f7bd cc06 363a f104 653e 3029 7a3d
00000210: 9214 ab3d 56ae 19be cfe1 013e 34d6 713e
00000220: 8919 00be b8c0 fe3d 6bc6 84bd f0c0 29be
00000230: 7a58 cebb 1512 a13d 7488 113d 08b5 cb3c
00000240: 440a 84bd 81c7 00be 30a3 92be bb19 1c3e
00000250: d2b7 ae3d 5869 8bbd 357b fbbd 276d b7bd
00000260: 2e4e 2e3e 75ca 4fbe 03eb 1f3e bdf2 e8ba
00000270: b561 16be a5b8 19be f617 49bc efc5 8ebb
00000280: f4da 1ebd 51f5 74be c810 d5bc 2da1 053e
00000290: 6695 1cbd 1b96 3cbd f5f5 de3c f4d6 a13b
000002a0: 24f3 c73d 2fed 92bd f62b 573e 0489 62be
000002b0: 6543 2e3d 6381 11be 8a1f b6bd ab5d 2d3e
000002c0: ecd0 313d e5a6 203e ff42 363d c464 34be
000002d0: 2869 f93b bc05 083e e5c9 573e 5605 0c3d
000002e0: ed6c 433e 5110 ab3d b731 1dbe f2bf 46be
000002f0: 65d0 5ebe 627e 12be 1e4d 1d3e a967 c73d
00000300: 718f 35bd 6b40 803e 002f 563d b847 f7bd
00000310: 39fa 363e dd34 88be 7c1e b1bd 4c6d e23d
00000320: 37c3 0e3c 5121 96bb 13e4 2c3d 630b fdbd
00000330: 0971 1ebe 65f2 00bc 9152 8a3b 152d 43be
00000340: ae92 d03d d2fb a13d 6566 c23d 1f87 1f3d
00000350: de8c 07be fb11 1b3e bd09 3c3e cf03 7d3d
00000360: 7074 233d 44e6 3ebd ff3c c83d 044f 1d3e
00000370: 5204 893c 7907 81be e6c1 323d 8415 6a3e
00000380: 3784 0ebe c693 03be cc50 483d 0638 52be
00000390: f5f3 9abd 5a46 32be 22aa 953d 5d23 23bb
000003a0: 2bf2 3abe 2ca5 a23d 4952 81bd c08b c53d
000003b0: e334 c6bc c2ea 8cbd d54c 05bd ea15 203c
000003c0: ea23 2d3e fc6e a63d 483e a73c d7b7 59be
000003d0: 35e9 033e 9917 12be 1c30 e53d aa97 3cbe
000003e0: f5d3 63be f539 75bd e755 55bc 354b 983e
000003f0: 7a10 21be 528f 293e 40aa 653b abad 9ebd

model/dense_2/MatMul f4 [100, 100]
-0.15353727 -0.11938404 -0.10645613 0.106022775 -0.09846871 -0.02232313 0.13325791 0.13158599
-0.19542451 0.17428783 -0.10618199 -0.008464017 -0.06365456 0.10031338 -0.17054619 0.02880504
0.15674494 -0.12747692 0.058917813 -0.07108192 0.16917318 0.10287168 0.0071465503 -0.15635832
0.10458626 0.050150458 -0.051814485 0.04380569 -0.14287412 -0.11416292 -0.09063263 0.021690188
0.10305411 -0.11519427 0.12364406 0.007798723 0.077120334 0.006028831 -0.051652204 -0.022369485
0.10334917 -0.12497906 0.023664163 0.024870796 -0.048042227 0.1447899 0.04186954 0.02403836
-0.06266979 0.07435175 0.09901161 -0.07120288 0.06159079 0.1509872 0.09753857 -0.1598382
-0.15081416 -0.034748297 0.1253937 -0.118832 0.015669564 0.08340714 0.05871812 -0.16128103
-0.016752545 0.103117906 -0.07022392 0.066240005 -0.16140714 0.1538983 0.028759826 0.002736299
-0.02358623 0.08013195 -0.16924927 -0.17713071 0.16080825 0.08461909 0.0009719116 0.13165174
-0.039297584 0.07409861 -0.10322538 -0.06812059 -0.12924689 -0.17232652 -0.04756932 -0.11723006
-0.17889485 0.084758505 0.05771256 -0.07612879 0.04531108 0.06308759 -0.049825724 0.15563643
-0.21015213 -0.14165995 -0.03955089 -0.007962113 0.19147205 -0.06054808 0.04409181 -0.09510979
-0.21546216 0.13548847 -0.07902377 -0.1016703 0.08056584 -0.101538025 0.11278697 -0.03743771
-0.03438777 0.14002676 0.10331433 0.12186428 0.15799616 0.079732455 0.005596865 0.015730234
-0.050595697 -0.019639121 0.20509535 -0.113289036 -0.013288757 -0.018855829 0.14676268 0.0017985404
0.048205514 0.087531716 0.12507993 0.12731278 -0.12552452 -0.11617792 -0.091750525 -0.11325189
-0.078995325 0.07423303 0.09862536 -0.052345295 -0.039953277 0.101951405 -0.20138042 0.09072585
0.070787534 0.050012626 0.12968701 -0.309323 -0.061875883 0.13427079 0.119604 0.008413479
-0.0018399068 0.1255971 0.06574967 0.21026045 -0.21030056 -0.107991636 -0.17483081 0.100096725
-0.0036891703 -0.1282855 0.08054567 -0.14621864 -0.1533716 0.037318476 0.048024636 -0.19616012
-0.18148717 -0.16115512 0.011453652 0.0596972 0.15554099 -0.18123518 0.11467384 -0.18992922
0.089980416 0.0023294995 0.2390269 -0.13562937 0.14818867 -0.063565806 0.10466828 0.01575659
-0.13733838 0.06437474 0.03490335 0.08367556 0.1352069 0.1007835 0.013272365 -0.0062016677
0.03279441 0.14195615 -0.14631148 -0.13678351 0.1388211 0.15726765 -0.018389247 0.12714933
-0.08230396 -0.12602133 -0.116651885 0.12777461 0.039922398 0.037544653 -0.034603946 -0.054859415
-0.018482225 -0.025310278 0.08065117 -0.061943986 0.020678146 -0.074338466 0.11428767 0.04571553
-0.05519243 0.13355425 0.13207148 -0.07534803 0.037443727 -0.04728804 0.07042848 0.07014333
0.09715855 -0.13691972 -0.1083029 0.079270005 0.04285206 0.013914467 -0.024981363 0.026123105
0.07860806 -0.02334321 -0.13213634 -0.036299687 -0.030678116 0.08236334 -0.12190148 -0.10886657
-0.04726394 0.081577785 -0.022768157 -0.02455317 0.0821294 -0.0039680013 0.06597268 0.049848344
-0.01973346 -0.032747358 -0.059277896 -0.032089345 -0.04975974 -0.13159637 -0.057300117 0.09692307
00000000: e038 1dbe 9f7f f4bd ac05 dabd 7822 d93d
00000010: f7a9 c9bd ffde b6bc c374 083e 7abe 063e
00000020: 5d1d 48be 8278 323e f175 d9bd a9ac 0abc
00000030: 525d 82bd 1a71 cd3d a9a3 2ebe 8cf8 eb3c
00000040: bf81 203e 4f89 02be ce53 713d 6693 91bd
00000050: bc3b 2d3e 63ae d23d 9c2d ea3b 651c 20be
00000060: 5231 d63d 916a 4d3d 6d3b 54bd 986d 333d
00000070: 984d 12be 40ce e9bd 9a9d b9bd 9faf b13c
00000080: 090e d33d f9ea ebbd 1939 fd3d 6e8c ff3b
00000090: 44f1 9d3d 808d c53b 4391 53bd 3640 b7bc
000000a0: bba8 d33d 05f5 ffbd 59db c13c d7bd cb3c
000000b0: edc7 44bd ce43 143e 657f 2b3d 18ec c43c
000000c0: 0559 80bd bb45 983d 99c6 ca3d d1d2 91bd
000000d0: a046 7c3d 639c 1a3e 4dc2 c73d a0ac 23be
000000e0: 076f 1abe 3b54 0ebd 3567 003e 315e f3bd
000000f0: 755d 803c 5dd1 aa3d 6982 703d db26 25be
00000100: a23c 89bc 7b2f d33d 8fd1 8fbd d7a8 873d
00000110: ea47 25be 8497 1d3e ba99 eb3c 7b53 333b
00000120: e937 c1bc 381c a43d ae4f 2dbe c161 35be
00000130: ebaa 243e c64c ad3d e2c7 7e3a b7cf 063e
00000140: 81f6 20bd 03c1 973d d467 d3bd cf82 8bbd
00000150: 4c59 04be 5d76 30be 0cd8 42bd 5016 f0bd
00000160: 3630 37be de95 ad3d 0164 6c3d 69e9 9bbd
00000170: 1c98 393d 1134 813d 0f16 4cbd 285f 1f3e
00000180: 1f32 57be 4e0f 11be 1d00 22bd 8673 02bc
00000190: 4011 443e 4301 78bd 9d99 343d ecc8 c2bd
000001a0: 1da2 5cbe 7dbd 0a3e 37d7 a1bd 8538 d0bd
000001b0: b4ff a43d 2bf3 cfbd dbfc e63d 4958 19bd
000001c0: 31da 0cbd 2d63 0f3e 7796 d33d fb93 f93d
000001d0: bfc9 213e c54a a33d e865 b73b b1dc 803c
000001e0: 6f3d 4fbd 39e2 a0bc 8404 523e 1504 e8bd
000001f0: 16b9 59bc 8a77 9abc f548 163e 00bd eb3a
00000200: 2573 453d d443 b33d f414 003e 485e 023e
00000210: 8089 00be b0ee edbd b3e7 bbbd 9bf0 e7bd
00000220: 4dc8 a1bd 7d07 983d 18fc c93d 0568 56bd
00000230: 0ca6 23bd e6cb d03d ab36 4ebe 79ce b93d
00000240: 0ef9 903d 0ada 4c3d accc 043e 965f 9ebe
00000250: 9171 7dbd 487e 093e f1f2 f43d b0d8 093c
00000260: 0729 f1ba 879c 003e c3a7 863d 844e 573e
00000270: 0859 57be b82a ddbd d906 33be 83ff cc3d
00000280: 02c6 71bb 465d 03be 21f5 a43d 57ba 15be
00000290: 720d 1dbe 42db 183d 7bb5 443d 33de 48be
000002a0: c6d7 39be d905 25be 19a8 3b3c 0d85 743d
000002b0: 2346 1f3e b795 39be 1eda ea3d ce7c 42be
000002c0: a747 b83d 84aa 183b 78c3 743e 6de2 0abe
000002d0: c5be 173e ca2e 82bd 535c d63d f713 813c
000002e0: 6fa2 0cbe e7d6 833d d1f6 0e3d 185e ab3d
000002f0: ad73 0a3e 9467 ce3d 5574 593c 5c37 cbbb
00000300: 6e53 063d f45c 113e add2 15be fa10 0cbe
00000310: 1e27 0e3e c50a 213e 0ca5 96bc 6f33 023e
00000320: fb8e a8bd bc0b 01be 2fe7 eebd 59d7 023e
00000330: ab85 233d 6cc8 193d debc 0dbd 44b4 60bd
00000340: 0968 97bc 8057 cfbc 712c a53d fab8 7dbd
00000350: 3765 a93c c43e 98bd a70f ea3d 3540 3b3d
00000360: 7511 62bd 72c2 083e bf3d 073e 1150 9abd
00000370: 985e 193d 1bb1 41bd cf3c 903d 4ea7 8f3d
00000380: 10fb c63d af34 0cbe e9cd ddbd 5058 a23d
00000390: a485 2f3d 81f9 633c b7a5 ccbc 1f00 d63c
000003a0: 43fd a03d 423a bfbc c04e 07be fbae 14bd
000003b0: ac50 fbbc 1cae a83d 7ca7 f9bd 70f5 debd
000003c0: d597 41bd 4112 a73d 4984 babc bb23 c9bc
000003d0: 7533 a83d 0206 82bb af1c 873d c72d 4c3d
000003e0: 11a8 a1bc 1822 06bd 61cd 72bd 1e70 03bd
000003f0: ded0 4bbd 33c1 06be 87b3 6abd 9a7f c63d

model/dense_3/MatMul f4 [200, 100]
-0.18408868 -0.11167732 -0.083608076 0.013321791 -0.0049849646 -0.15678152 0.04289216 -0.12521869
-0.03006371 0.11032843 -0.119496435 0.0402397 0.1920245 -0.08939413 0.09636414 -0.010955067
0.029754106 0.12734641 -0.1113497 -0.18216053 -0.19061151 0.040430766 -0.029722769 -0.15232679
-0.19437096 -0.12521642 -0.025178608 -0.008792336 0.16533044 -0.23625183 0.0063092792 0.16055077
-0.04049476 0.089863546 -0.044559497 -0.30520678 -0.18922558 0.11990773 -0.10188447 -0.08181821
-0.26176095 0.1927256 -0.005904906 0.031033002 -0.070211135 -0.11179855 0.0067044655 -0.03195549
-0.11862438 0.018723136 -0.031724278 -0.028627498 -0.09194548 -0.08916612 -0.052503098 -0.16677074
0.0402081 0.17075558 -0.09188995 0.03382845 -0.15801771 0.0073047546 0.0057582017 -0.021957163
-0.008202451 0.17403379 -0.06030115 0.10563245 0.066625066 0.2757126 -0.034842376 0.048277013
-0.18600659 0.04576184 0.07438587 0.08264405 -0.17939816 0.025241265 -0.09371045 -0.08907265
-0.18274821 0.042210806 -0.014483928 0.0481364 0.11300321 0.09646656 -0.10934299 0.06984929
0.14897873 0.13940276 -0.12827025 0.118147805 -0.03024563 -0.06908104 -0.09378939 0.069783315
-0.07097292 0.109582804 0.15506749 -0.019530384 0.08441337 0.09170202 0.036650114 0.119183205
0.08185 0.15503904 -0.009420342 0.18778639 0.0913575 0.0471736 0.054939613 0.044006564
-0.06586712 -0.024496665 0.1533994 0.23535733 0.00521227 -0.07313805 0.11937212 0.08104477
0.0693675 0.06167917 0.061722286 0.056394793 -0.03231014 -0.037337612 -0.121713765 0.20993151
-0.075419724 -0.029847762 0.0044146357 0.071532466 0.129028 0.14756854 0.12315067 0.16145657
0.1278795 -0.12375462 0.04569149 0.07144589 -0.095172696 0.17514394 0.01180856 0.1383628
0.13368982 0.10728642 -0.022406863 -0.05283167 0.07136489 -0.09120108 0.04122785 -0.08568614
0.0305982 0.05540348 -0.032395534 0.19196339 0.020309316 0.1620057 -0.03263123 -0.11159678
0.17389292 0.014835545 -0.09308428 0.10178204 -0.051498473 -0.020745717 0.13760084 0.09070784
0.11481546 -0.13761373 0.087822214 0.16043934 0.14162566 0.0533095 -0.085639 -0.040473323
-0.015115851 -0.068944156 0.14795037 -0.062226348 0.043012146 -0.036278024 0.05873861 0.14541487
0.06230737 0.16162203 0.24429607 0.16549751 -0.014621027 0.09096926 -0.036246076 -0.054168224
-0.048641164 0.21074893 0.13305598 0.090548575 -0.09860889 0.13740529 0.053595096 0.0016237837
-0.11032136 0.0347182 -0.034087975 0.18747386 -0.1198189 0.18274425 0.0221933 -0.056519326
-0.02463548 0.03153658 0.035050154 0.026051834 -0.14984527 -0.007179567 0.058235165 0.21910739
0.16448936 0.07958006 0.022796119 0.20880589 0.056564398 -0.04146676 6.839934e-05 -0.05201612
0.1603027 0.13344607 0.14446343 0.0372229 0.07356532 0.05400927 0.15320963 0.014999031
0.059683044 0.12459002 0.024230113 0.20304714 0.031950597 -0.06649138 -0.02096458 0.020395882
0.039123256 -0.019258475 0.11273141 0.009889126 -0.0999274 0.09275211 0.12377583 0.19046745
0.023861872 -0.0066268397 -0.03699123 0.14752413 0.009496236 0.0383333 0.07553345 0.10198109
00000000: be81 3cbe 14b7 e4bd b63a abbd a443 5a3c
00000010: ea58 a3bb 568b 20be b1af 2f3d 5439 00be
00000020: 2b48 f6bc dff3 e13d 8cba f4bd 62d2 243d
00000030: 12a2 443e 4514 b7bd 905a c53d e27c 33bc
00000040: e2be f33c 1967 023e 500b e4bd 4a88 3abe
00000050: aa2f 43be bb9a 253d 2a7d f3bc 8efb 1bbe
00000060: 2e09 47be bc38 00be 5e43 cebc bb0d 10bc
00000070: 624c 293e 00ec 71be 12be ce3b 6c67 243e
00000080: d5dd 25bd 610a b83d 0584 36bd 1044 9cbe
00000090: 5ac4 41be 2f92 f53d cea8 d0bd 4e90 a7bd
000000a0: 8805 86be dc59 453e f17d c1bb ec38 fe3c
000000b0: dbca 8fbd a3f6 e4bd 22b1 db3b c3e3 02bd
000000c0: 57f1 f2bd 4361 993c 51f1 01bd 3784 eabc
000000d0: e94d bcbd ba9c b6bd 7d0d 57bd f3c5 2abe
000000e0: 40b1 243d 8dda 2e3e cc30 bcbd b38f 0a3d
000000f0: 65cf 21be b95c ef3b 4caf bc3b 82df b3bc
00000100: 9363 06bc ea35 323e 57fe 76bd d355 d83d
00000110: b972 883d 342a 8d3e e1b6 0ebd 1ebe 453d
00000120: 8378 3ebe c470 3b3d 9e57 983d 4941 a93d
00000130: 27b4 37be c5c6 ce3c 44eb bfbd b96b b6bd
00000140: 5922 3bbe 3de5 2c3d ff4d 6dbc ac2a 453d
00000150: 3a6e e73d 4390 c53d 38ef dfbd 250d 8f3d
00000160: e18d 183e 99bf 0e3e 4759 03be 7af7 f13d
00000170: afc5 f7bc 5c7a 8dbd a714 c0bd 8eea 8e3d
00000180: 405a 91bd f36c e03d 03ca 1e3e 2ffe 9fbc
00000190: ebe0 ac3d 45ce bb3d 6e1e 163d 5316 f43d
000001a0: f9a0 a73d 8ec2 1e3e c757 1abc 134b 403e
000001b0: a419 bb3d 1b39 413d 5c08 613d 3a40 343d
000001c0: 57e5 86bd 3bad c8bc bb14 1d3e 8301 713e
000001d0: b1cb aa3b 67c9 95bd 5f79 f43d cdfa a53d
000001e0: 8c10 8e3d 4ca3 7c3d 82d0 7c3d 3afe 663d
000001f0: a357 04bd 53ef 18bd 1145 f9bd 49f8 563e
00000200: a875 9abd 4b83 f4bc a6a8 903b 9d7f 923d
00000210: eb1f 043e 351c 173e 6b36 fc3d df54 253e
00000220: d8f2 023e 1073 fdbd 0027 3b3d 3952 923d
00000230: e7e9 c2bd ef58 333e b178 413c faae 0d3e
00000240: fce5 083e fcb8 db3d 998e b7bc 0566 58bd
00000250: c127 923d a2c7 babd 89de 283d 377c afbd
00000260: 14a9 fa3c c2ee 623d 2eb1 04bd 0d92 443e
00000270: b95f a63c d2e4 253e 53a8 05bd da8c e4bd
00000280: fc10 323e c910 733c f9a2 bebd 1a73 d03d
00000290: 10f0 52bd ecf2 a9bc 3ce7 0c3e 08c5 b93d
000002a0: 5e24 eb3d 9dea 0cbe 22dc b33d 364a 243e
000002b0: 5106 113e 105b 5a3d 8063 afbd 5bc7 25bd
000002c0: 79a8 77bc 9832 8dbd 4d80 173e 0ee1 7ebd
000002d0: 812d 303d 4498 14bd e697 703d a3e7 143e
000002e0: 0336 7f3d 3f80 253e c028 7a3e 2e78 293e
000002f0: 088d 6fbc 174e ba3d c476 14bd 80df 5dbd
00000300: f53b 47bd 91ce 573e d43f 083e 8871 b93d
00000310: 75f3 c9bd f9b3 0c3e 8886 5b3d 24d5 d43a
00000320: 2af0 e1bd ac34 0e3d d59f 0bbd 26f9 3f3e
00000330: 9d63 f5bd 4f21 3b3e b9ce b53c cf80 67bd
00000340: 59d0 c9bc 802c 013d c090 0f3d a86a d53c
00000350: 0a71 19be 9342 ebbb ff87 6e3d b05d 603e
00000360: e66f 283e dffa a23d edbe ba3c 36d1 553e
00000370: 12b0 673d 0dd9 29bd 9e71 8f38 db0e 55bd
00000380: 6426 243e 16a6 083e 39ee 133e 0a77 183d
00000390: 6aa9 963d d338 5d3d fce2 1c3e 7fbe 753c
000003a0: 3576 743d 0d29 ff3d 3b7e c63c 97eb 4f3e
000003b0: a1de 023d a22c 88bd e9bd abbc 4415 a73c
000003c0: b53f 203d f3c3 9dbc badf e63d 0006 223c
000003d0: bda6 ccbd d1f4 bd3d 2f7e fd3d e609 433e
000003e0: f979 c33c f625 d9bb 1e84 17bd 9110 173e
000003f0: 1a96 1b3c 6103 1d3d 48b1 9a3d 76db d03d

model/dense_4/MatMul f4 [1, 200]
-0.13157292 0.07434876 0.11108836 -0.21790601 -0.023329174 0.089706935 -0.0990343 -0.063924655
-0.15767963 -0.032204486 -0.13492587 -0.1460419 -0.11455216 0.08356667 -0.07549618 0.024154825
-0.15192476 0.12060445 0.18077724 0.09022735 0.15673618 -0.100978866 -0.14264251 -0.10544639
0.058685496 -0.030997684 0.11869645 0.056509566 0.15485357 -0.070343606 -0.086674124 0.124046445
-0.019635135 0.06857544 -0.13677712 -0.14341067 -0.08125275 -0.080564 0.20918523 -0.0670345
0.14020874 0.025762761 0.14203027 0.08169919 0.070202045 0.17345487 0.007942537 0.15343907
-0.0029995532 0.17343153 -0.08993669 -0.06510361 0.09436976 -0.22680953 0.10367923 0.167074
0.0023625433 0.094264336 0.077015586 -0.13824478 0.1577413 -0.093402885 0.14127423 -0.150855
-0.28799137 -0.11744032 0.039615747 -0.14730138 -0.09316312 0.063415006 0.06954301 -0.119813435
-0.009711622 0.12048508 0.17776851 0.03396113 0.1893753 -0.13028453 0.060103394 -0.14877586
0.06283804 0.09205553 -0.0055997823 -0.042364087 0.057743028 -0.0067905383 -0.21812557 0.20717847
-0.17967147 0.040227227 -0.02971965 -0.114787415 0.097555615 -0.07791898 0.17858243 0.04037803
0.09259897 0.031713765 -0.07796111 -0.26863757 -0.08743696 -0.16711925 0.10272883 -0.15141518
-0.040414847 -0.3016516 -0.15688966 -0.03511273 -0.03389566 0.12548865 -0.20300011 0.09954896
0.17168018 0.21208325 -0.035558876 0.12691757 -0.13633625 -0.08259275 -0.17277828 0.11744965
-0.027264796 0.12005889 0.073557444 0.059634373 -0.1270134 -0.08276072 -0.15838386 0.019996332
0.15669605 0.045488432 0.15834375 -0.060989536 -0.0464719 0.05936978 -0.13444084 -0.1810452
0.009202743 0.20773199 -0.12919705 0.17608035 -0.15832517 0.065156244 0.09659722 -0.15115118
-0.07463522 0.06315623 0.043005392 -0.11659856 0.14874779 -0.06419582 0.043794412 0.05317775
-0.14177969 0.14820424 -0.1509339 -0.0933538 -0.08301389 0.07732174 0.052980103 0.14106578
0.18349238 -0.11138542 -0.02677396 -0.051735282 -0.007305726 -0.03073076 0.116458304 -0.042997044
-0.17755137 -0.0691731 -0.1463334 0.24835916 -0.111986585 0.027845137 -0.10990522 0.087448545
-0.070379 -0.062006544 0.07447495 0.110395394 0.10714374 -0.15776187 0.122969 0.16330115
0.1691079 -0.14159721 0.2082779 0.068670906 -0.12514533 0.09624641 0.114508435 0.10587144
-0.106609374 0.18137376 0.1659396 0.031906564 0.17026179 -0.14122984 0.1682791 0.18955727
00000000: 0dbb 06be 2a44 983d 4b82 e33d c122 5fbe
00000010: d31c bfbc 45b8 b73d 7fd2 cabd eeea 82bd
00000020: c576 21be dae8 03bd 022a 0abe 028c 15be
00000030: 539a eabd 0125 ab3d be9d 9abd 57e0 c53c
00000040: 2a92 1bbe 77ff f63d ab1d 393e 1ec9 b83d
00000050: 737f 203e 02ce cebd e110 12be 47f4 d7bd
00000060: 3460 703d dbee fdbc 2017 f33d 9376 673d
00000070: ef91 1e3e 4f10 90bd 3482 b1bd 100c fe3d
00000080: ddd9 a0bc 4871 8c3d 4d0f 0cbe 3fda 12be
00000090: d767 a6bd bdfe a4bd a734 563e 6249 89bd
000000a0: e192 0f3e 6d0c d33c 6270 113e e851 a73d
000000b0: 17c6 8f3d 279e 313e 6a21 023c 221f 1d3e
000000c0: 2794 44bb 0998 313e ba30 b8bd 0b55 85bd
000000d0: ef44 c13d c240 68be c755 d43d 7215 2b3e
000000e0: e6d4 1a3b a90d c13d 59ba 9d3d 0a90 0dbe
000000f0: ef86 213e 034a bfbd 31aa 103e bc79 1abe
00000100: 9b73 93be 8d84 f0bd 1f44 223d 2cd6 16be
00000110: 4ecc bebd badf 813d 916c 8e3d bf60 f5bd
00000120: 7f1d 1fbc e2c0 f63d f308 363e d31a 0b3d
00000130: 99eb 413e 4f69 05be fa2e 763d b358 18be
00000140: 3bb1 803d 9c87 bc3d 617e b7bb f785 2dbd
00000150: f483 6c3d 2a83 debb 4f5c 5fbe 9826 543e
00000160: ccfb 37be 4ec5 243d a076 f3bc aa15 ebbd
00000170: 3dcb c73d fc93 9fbd 50de 363e 6f63 253d
00000180: 87a4 bd3d 4be6 013d 13aa 9fbd dd8a 89be
00000190: 2612 b3bd 4f21 2bbe 7e63 d23d 950c 1bbe
000001a0: 0a8a 25bd 1472 9abe afa7 20be 5ed2 0fbd
000001b0: 2dd6 0abd 1980 003e 43df 4fbe 53e0 cb3d
000001c0: eecc 2f3e 5a2c 593e 2fa6 11bd aef6 013e
000001d0: bb9b 0bbe 6326 a9bd caec 30be 7189 f03d
000001e0: 6c5a dfbc 6fe1 f53d 49a5 963d 2c43 743d
000001f0: cd0f 02be 747e a9bd 612f 22be 59cf a33c
00000200: ee74 203e 1452 3a3d dd24 223e 2ad0 79bd
00000210: 5259 3ebd ba2d 733d dcaa 09be ea63 39be
00000220: 1ac7 163c b2b7 543e 3b4c 04be 684e 343e
00000230: fe1f 22be a370 853d c3d4 c53d 60c7 1abe
00000240: 5ada 98bd 0e58 813d 6c26 303d 3acb eebd
00000250: 5751 183e 1979 83bd c561 333d ead0 593d
00000260: b22e 11be dac2 173e 6b8e 1abe 4730 bfbd
00000270: 3003 aabd dc5a 9e3d aa01 593d 8c73 103e
00000280: 6de5 3b3e 0a1e e4bd 1055 dbbc 60e8 53bd
00000290: df64 efbb 13bf fbbc b181 ee3d ab1d 30bd
000002a0: 07d0 35be a0aa 8dbd 6cd8 15be dd51 7e3e
000002b0: 3959 e5bd 7c1b e43c fd15 e1bd 3918 b33d
000002c0: dd22 90bd 93fa 7dbd 5386 983d fb16 e23d
000002d0: 2d6e db3d 548c 21be 2cd7 fb3d 6b38 273e
000002e0: 9f2a 2d3e dcfe 10be cd46 553e 55a3 8c3d
000002f0: 1926 00be d61c c53d 6683 ea3d 20d3 d83d
00000300: 0456 dabd 0bba 393e 12ec 293e 75b0 023d
00000310: 1b59 2e3e 8e9e 10be 5b51 2c3e 4d1b 423e
