haepe.tflite (tflite, 51548 bytes, 7 tensors)

sequential_2/dense_9/BiasAdd/ReadVariableOp f4 [100]
0	0x3d1c894e	0.03821688
1	0x3c9dfcf9	0.019285666
2	0xbd2163b4	-0.039401725
3	0x3cf51960	0.029919326
4	0xbc97c789	-0.018527763
5	0x3d54ff8c	0.05200152
6	0xbcc19263	-0.023629373
7	0x3c29c7aa	0.010362545
8	0x3c3f2f0e	0.011668934
9	0xbbce9ef1	-0.0063055684
10	0x3d01b51c	0.03166686
11	0xbcaca3f0	-0.021074265
12	0x3d017bc8	0.031612188
13	0x3c8b991b	0.01704078
14	0x3cb4a4f9	0.022051321
15	0x3cb8221f	0.022477208
16	0x3c2e4457	0.010636411
17	0x3c93e9f1	0.018055888
18	0x3ca0af4b	0.019614836
19	0x3c8a77af	0.016902773
20	0xbccd55cf	-0.02506533
21	0x3d5fe0fb	0.054657917
22	0x3d3d1dac	0.046170875
23	0x3d06f5cb	0.03294925
24	0x3bf9cfc1	0.007623643
25	0xbbe2e8c8	-0.0069247223
26	0x3c6d9b9d	0.014502433
27	0x3cc1bd55	0.02364985
28	0xbc9d1977	-0.019177182
29	0x3c97eade	0.01854461
30	0xbcaa3028	-0.020774916
31	0x3cbb143f	0.022836803
32	0x3c9da2b7	0.019242628
33	0x3a848f98	0.0010113595
34	0x3cf25bb6	0.029584747
35	0xbcc11292	-0.023568425
36	0x3c877ce9	0.016539054
37	0x3d17bf60	0.037047744
38	0xbb760911	-0.0037542025
39	0xbc680249	-0.014160701
40	0x3d14e164	0.03634776
41	0x3c0e7363	0.0086945025
42	0x3d455923	0.04818071
43	0x3d58c04e	0.05291777
44	0xbce8fbf3	-0.028440451
45	0xbd0519c2	-0.032495268
46	0xbc2829d5	-0.01026388
47	0x3c2b254a	0.010445902
48	0x3d31ae0b	0.04337887
49	0x3c1f55e0	0.009725064
50	0x3bd8f219	0.006620657
51	0x3c5c0d20	0.013430864
52	0xbcce74f9	-0.025202261
53	0x3c8545ea	0.01626869
54	0x3c85dcdc	0.016340666
55	0x3d8e8171	0.06958283
56	0x3cd66ec0	0.026175857
57	0x3a5328c6	0.0008055087
58	0x3c58fcb5	0.013243844
59	0x3c534b9f	0.012896447
60	0x3d82e433	0.06391182
61	0xbc3e7f12	-0.011626976
62	0xbaa5b65c	-0.0012642848
63	0xbd2ed192	-0.04268033
64	0x3c05cbb8	0.008166246
65	0xbc928576	-0.017885905
66	0xbd265cbf	-0.040615793
67	0xbc483a80	-0.012220979
68	0xbce17b1d	-0.027524525
69	0xba919803	-0.0011107925
70	0x3cfe355d	0.031031305
71	0x3da3e4aa	0.080025986
72	0x3c835ff3	0.016036963
73	0xbc1bc930	-0.009508416
74	0x3c3e1c45	0.01160342
75	0xbc33d5e5	-0.010976289
76	0x3c8d0efb	0.017219057
77	0x3d2aa206	0.041658424
78	0x3ce4b5d5	0.027918736
79	0x3cd3640c	0.025804542
80	0xbbe563db	-0.007000429
81	0xbcce9f77	-0.025222523
82	0xbca5909a	-0.020210553
83	0x3d78ab25	0.06071009
84	0xbd0bf717	-0.03417119
85	0x3d815f8f	0.063170545
86	0x3cc7411a	0.024323035
87	0xba5e9142	-0.0008490273
88	0xbbdbf18a	-0.0067121433
89	0xbd55dc3f	-0.052211996
90	0x3c88cf97	0.016700549
91	0x3c382d67	0.0112412935
92	0x3cbdf2fd	0.023187155
93	0xbba91728	-0.005160231
94	0x3c643342	0.013928236
95	0x3c2754f7	0.010213128
96	0x3ce47a30	0.027890295
97	0x3cc7010c	0.024292491
98	0x3cd3ddad	0.02586254
99	0xbd5f2b7e	-0.054484837

sequential_2/dense_8/BiasAdd/ReadVariableOp f4 [13]
0	0x3d070866	0.032966994
1	0x3d3cbc53	0.046078037
2	0x3c8aad1c	0.016928248
3	0x3c862c49	0.016378539
4	0x3d002e6c	0.03129427
5	0x3c944277	0.0180981
6	0x3d1ece3a	0.03877089
7	0x3c88af0d	0.016685033
8	0x3d49a8ae	0.04923313
9	0x3d7a0a55	0.06104501
10	0x3cae5bf2	0.021284077
11	0x3c939590	0.018015653
12	0x3d0f88ce	0.035042576

sequential_2/dense_10/BiasAdd/ReadVariableOp f4 [100]
0	0x3c93ff3a	0.018066037
1	0x3d08f042	0.033432253
2	0xbc924a5e	-0.017857727
3	0x00000000	0.0
4	0x3b97d0df	0.0046330537
5	0xbca61e64	-0.020278163
6	0x3cfab5f5	0.030604342
7	0xbca93e3a	-0.020659555
8	0x3c92ab76	0.017904025
9	0xbb4d7c47	-0.0031354593
10	0x3c911a2e	0.017712679
11	0xbca3fbe5	-0.020017574
12	0xbc6a9b27	-0.014319218
13	0x3c767d7a	0.015044564
14	0x3c67cf0e	0.014148487
15	0xbc4e3be9	-0.012587526
16	0xbc66ade1	-0.014079542
17	0x3c9046b7	0.017611844
18	0x3b71b318	0.003688043
19	0x3ca54b24	0.020177431
20	0x3c8b8663	0.017031854
21	0xbc8ccb26	-0.017186712
22	0xbc01e169	-0.007927277
23	0x3c89d3c1	0.016824605
24	0x3c59a9d3	0.013285118
25	0x3c81bb01	0.01583624
26	0xbc86c338	-0.01645051
27	0x3d31af75	0.04338022
28	0xbce24914	-0.027622737
29	0x3ce49870	0.02790472
30	0x3c882b4c	0.016622208
31	0x3c9ac027	0.018890454
32	0xbc80d80b	-0.015728017
33	0xbbf6883d	-0.007523565
34	0xbccf1d98	-0.025282666
35	0x3c92bc8a	0.017912168
36	0x3c15db91	0.009146587
37	0x3cf02c98	0.029318139
38	0x3c3a98cc	0.011388969
39	0x3b881e44	0.0041539986
40	0x3c81953c	0.01581823
41	0xbbdf7d5e	-0.006820365
42	0x3c3c96ff	0.01151061
43	0x3c87ef0e	0.016593482
44	0x3bf39f9e	0.0074347993
45	0xbcc2d270	-0.023781985
46	0xbcd81f21	-0.02638203
47	0x3c94cb4e	0.01816335
48	0xbb55f503	-0.003264726
49	0x3c935274	0.017983653
50	0xbc3004af	-0.010743304
51	0xbc5fbd8b	-0.01365603
52	0x3b857fff	0.004074096
53	0x3c8ff82f	0.017574398
54	0x00000000	0.0
55	0x3ca47bde	0.020078596
56	0x3ca61f89	0.020278709
57	0x3b9720e9	0.0046120775
58	0x3c895861	0.016765775
59	0x3c92e78e	0.01793268
60	0xbcbc5d4b	-0.022993704
61	0xbc8a37e8	-0.016872361
62	0xbca76d83	-0.020437961
63	0xbc9367b0	-0.017993778
64	0x3c982152	0.018570576
65	0x3c962523	0.018328255
66	0x3a08b65f	0.00052151637
67	0x3c401940	0.01172477
68	0xbb9c814d	-0.004776156
69	0xbcabb8f0	-0.020962209
70	0x3c932e3c	0.017966382
71	0xbc751f77	-0.014961115
72	0xba5c6cce	-0.0008408547
73	0xbcd9099a	-0.026493836
74	0xbcaa1713	-0.020762956
75	0x3cbfe744	0.023425706
76	0x3c50a6a0	0.012735039
77	0x3b99b1ef	0.004690401
78	0x3ca0b4df	0.019617496
79	0xbce13bab	-0.027494272
80	0x3c227ab7	0.009916953
81	0xbbfb0f7c	-0.007661758
82	0x3ce0ccb5	0.027441362
83	0xbc178238	-0.009247355
84	0xbc2fd884	-0.010732774
85	0xbca3baac	-0.019986473
86	0x3c904477	0.017610772
87	0x3c5efa4d	0.013609481
88	0x00000000	0.0
89	0x3c970ffb	0.018440237
90	0x3c22aa1a	0.009928251
91	0xbc894f43	-0.016761428
92	0x3c637344	0.013882462
93	0xbc801f0a	-0.0156398
94	0x3c905210	0.017617255
95	0xbbc09797	-0.005877446
96	0xbc7a5383	-0.0152787
97	0x3d083ac6	0.033259176
98	0x3c0c0bd8	0.008547746
99	0x3caddf3f	0.021224616

sequential_2/dense_8/MatMul f4 [13, 45]
0	0x3d849779	0.064742036
1	0xbe14f46b	-0.14546363
2	0xbd4bc43c	-0.04974769
3	0xbde05259	-0.109532066
4	0x3e37c78b	0.17947213
5	0x3e46b8df	0.1940646
6	0x3e64e380	0.2235241
7	0x3e4ff9a6	0.20310077
8	0xbe93ffd0	-0.28906107
9	0xbe251cf3	-0.16124325
10	0x3d896d8a	0.06710346
11	0xbda991aa	-0.08279736
12	0x3eaef305	0.34169784
13	0x3e9d9029	0.30774048
14	0x3d8ad2f4	0.06778517
15	0xbe7c4753	-0.24636583
16	0xbd6db7ee	-0.058036737
17	0xbddf4063	-0.10900953
18	0x3eb2d6fd	0.34929648
19	0xbe8306fb	-0.25591263
20	0xbe8ce065	-0.2751495
21	0x3e7feb95	0.24992211
22	0xbe65cf8e	-0.22442457
23	0x3eb5e088	0.35522866
24	0x3ec16376	0.37771195
25	0x3d894de9	0.06704313
26	0x3cc712a9	0.02430089
27	0x3ebce6f4	0.36894953
28	0xbe48d63a	-0.19612971
29	0xbe55d271	-0.20881058
30	0x3e76b2bc	0.24091619
31	0x3e6a92f0	0.22907615
32	0x3ea2fde0	0.31834316
33	0xbdf07ccc	-0.11742553
34	0x3da5e598	0.08100432
35	0x3e26e538	0.16298378
36	0xbe53746b	-0.20649879
37	0xbd7a466e	-0.061102323
38	0xbd1e581c	-0.038658246
39	0xbe65df9d	-0.22448583
40	0xbe96b60e	-0.29435772
41	0xbda902cf	-0.08252489
42	0xbe742fdd	-0.23846383
43	0x3eca9f59	0.39574698
44	0x3e99c089	0.30029705
45	0x3ea541c0	0.32276726
46	0x3e550bb4	0.20805246
47	0xbcf46c9c	-0.029836945
48	0x3e9008b9	0.28131655
49	0x3e0f979f	0.14022683
50	0x3e8cfbf2	0.2753597
51	0x3e12afd8	0.14324892
52	0x3e907240	0.28212166
53	0x3da58788	0.08082491
54	0x3eb481e5	0.35255352
55	0x3e5e3bbf	0.21702479
56	0x3e9ab3fe	0.30215448
57	0x3e53b372	0.20673922
58	0xbebfd4cf	-0.37467048
59	0xbe5c8c6f	-0.21537946
60	0xbe8a1fe2	-0.2697745
61	0x3e10f1c2	0.14154723
62	0x3c8ab48e	0.016931798
63	0xbe12bbf5	-0.14329512
64	0x3dfb8de4	0.12282923
65	0x3bb38c3d	0.005479364
66	0x3d0135b5	0.03154536
67	0x3ee77420	0.45205784
68	0x3db46d4b	0.088099085
69	0x3ebc5ef3	0.3679119
70	0x3e666958	0.22501123
71	0xbe87a845	-0.26495567
72	0xbe831d47	-0.25608274
73	0x3e26eb1e	0.16300628
74	0xbe9b5a7e	-0.30342478
75	0x3e5bb753	0.21456651
76	0xbd93f716	-0.07224862
77	0xbe3f2362	-0.18665841
78	0x3ec4205f	0.38305947
79	0x3e068416	0.13136324
80	0xbd94d83d	-0.07267807
81	0x3e13edca	0.14446178
82	0xbe2454a0	-0.16047907
83	0x3eb1a87a	0.3469885
84	0x3e15ed09	0.14641203
85	0x3d889cbe	0.06670521
86	0xbdd9063d	-0.10596893
87	0x3e548d22	0.20756963
88	0xbe088321	-0.13331272
89	0xbe09a016	-0.13439974
90	0xbdbb923d	-0.09158752
91	0xbe56c3ca	-0.20973125
92	0x3e9e22fb	0.30886063
93	0xbdaf3ec9	-0.08556897
94	0x3b732f29	0.0037106967
95	0xbe225248	-0.158517
96	0xbe47f1af	-0.19525789
97	0xbefe66c8	-0.4968779
98	0x3ea365fc	0.31913745
99	0xbe474e92	-0.19463566
100	0x3e722682	0.23647502
101	0xbdb2d376	-0.08731739
102	0x3e1474e4	0.14497715
103	0xbd02087d	-0.031746376
104	0x3ee5dc82	0.44894797
105	0xbe96b5b0	-0.29435492
106	0x3e3416f8	0.17586887
107	0x3c2ca74c	0.010537934
108	0xbb119983	-0.0022216744
109	0xbb9d28c5	-0.00479612
110	0xbd71487a	-0.05890701
111	0x3cb53357	0.022119207
112	0x3e176faf	0.14788698
113	0xbe70cd64	-0.2351585
114	0xbe5456d5	-0.20736249
115	0xbe96de33	-0.294664
116	0xbe9b82c4	-0.30373204
117	0x3ebfaf72	0.37438542
118	0x3d92aa5e	0.07161401
119	0x3e9a4fa6	0.30138892
120	0xbd8a10cd	-0.06741486
121	0x3dbc48ac	0.091935486
122	0xbd9f75f5	-0.077861704
123	0x3ec090ee	0.37610573
124	0xbe25b190	-0.16181016
125	0x3c167a41	0.009184421
126	0x3d45b172	0.04826493
127	0xbebc4eea	-0.36778957
128	0xbcbfe5a7	-0.023424936
129	0x3c471a5f	0.012152283
130	0xbe54a161	-0.20764686
131	0xbe7bdca3	-0.24595885
132	0x3dd54f9d	0.10415576
133	0x3e0961ae	0.13416168
134	0x3c54016c	0.012939792
135	0xbd6d31a4	-0.05790867
136	0x3c2d9d81	0.010596634
137	0xbe05984a	-0.13046375
138	0xbeade38c	-0.33962667
139	0xbde51fe2	-0.11187722
140	0x3e821656	0.25407666
141	0x3e8122b5	0.25221792
142	0xbb938a33	-0.0045025586
143	0x3d22ca40	0.039743662
144	0xbe8530ea	-0.2601388
145	0xbe0f766e	-0.14010021
146	0xbe9575a7	-0.29191324
147	0x3e81fc11	0.25387624
148	0xbe021c7f	-0.12706183
149	0xbe385332	-0.18000486
150	0x3e87a2cc	0.26491392
151	0x3e143dc5	0.14476688
152	0x3e2db1e4	0.16962391
153	0xbd6b8032	-0.057495303
154	0xbdcb5831	-0.099289306
155	0x3e8f140f	0.2794499
156	0xbe900cfb	-0.28134903
157	0xbdfa2f0f	-0.12216007
158	0xbe819941	-0.25312236
159	0x3ecc9d2b	0.3996366
160	0xbe459188	-0.19293797
161	0xbeba2367	-0.36355135
162	0x3e0f7483	0.1400929
163	0x3e0d1ac3	0.1377974
164	0x3e5b2858	0.21402109
165	0xbe5cf25d	-0.21576829
166	0xbddcf416	-0.10788743
167	0x3e7e5f16	0.2484096
168	0xbde2179a	-0.11039658
169	0x3d248ec5	0.040175218
170	0xbe99dd57	-0.3005168
171	0x3e2baadb	0.16764395
172	0xbbec03ea	-0.007202615
173	0x3c1140b3	0.008865523
174	0xbe1af825	-0.15133722
175	0x3e9b3751	0.3031564
176	0x3e98a31f	0.29811952
177	0x3b839330	0.004015349
178	0xbdcd5257	-0.10025471
179	0x3e928030	0.28613424
180	0xbde8ee4f	-0.11373579
181	0x3e7f3bb8	0.24925125
182	0xbe764ca8	-0.2405268
183	0xbe599fe2	-0.21252397
184	0x3ddd45d3	0.108043335
185	0xbd83a4f3	-0.06427946
186	0xbe8ae318	-0.27126384
187	0x3eb53914	0.3539511
188	0xbd8ca228	-0.06866866
189	0xbdff6b07	-0.12471586
190	0x3da32c9f	0.07967495
191	0xbe50cca2	-0.20390561
192	0x3eac8423	0.33694562
193	0x3e2bffe0	0.16796827
194	0xbd6ea013	-0.058258127
195	0x3e8b990f	0.27265212
196	0x3e22da37	0.15903555
197	0x3e91578c	0.28387105
198	0x3e96757a	0.29386503
199	0x3e6406b0	0.22268176
200	0xbe80da77	-0.25166675
201	0x3e063bfa	0.13108817
202	0xbe011b9f	-0.12608193
203	0xbc3a0694	-0.011354107
204	0xbe17965c	-0.14803451
205	0x3d189e44	0.03726031
206	0x3ed40e9c	0.41417396
207	0x3da355ae	0.079753265
208	0xbda3caf6	-0.07997696
209	0x3ea7f558	0.3280437
210	0x3e5a2e0b	0.21306626
211	0x3d3ec11d	0.046570886
212	0x3e441b16	0.19150957
213	0xbd155fa3	-0.03646816
214	0x3ed7ab7f	0.4212303
215	0x3e97b7c2	0.29632384
216	0x3e6672cd	0.2250473
217	0xbed1321c	-0.40858543
218	0xbe8ea367	-0.2785904
219	0x3e0d8b2a	0.13822618
220	0x3e3da641	0.18520452
221	0xbe1c6362	-0.15272287
222	0x3dcf7608	0.101299345
223	0x3d6e3319	0.0581542
224	0xbda85783	-0.082198165
225	0x3c9ec249	0.019379752
226	0xbd096580	-0.033544064
227	0xbea76462	-0.32693774
228	0x3e345b54	0.17612964
229	0xbe9eea1b	-0.31037983
230	0xbe5067a1	-0.20352031
231	0xbe0b9f6f	-0.13635038
232	0xbea44a43	-0.32087907
233	0x3e5b8af8	0.21439731
234	0x3e5e0d20	0.21684694
235	0xbe848e77	-0.25889942
236	0xbe197d6a	-0.14989248
237	0xbd9be48d	-0.07611952
238	0xbcb030f6	-0.021507721
239	0x3d26723c	0.040636286
240	0x3d0451a5	0.032304425
241	0x3ec23749	0.37932804
242	0x3dd9bd08	0.10631758
243	0x3d3d4a10	0.04621321
244	0xbcef683e	-0.029224511
245	0xbe0d9654	-0.13826877
246	0x3e0f21f8	0.13977802
247	0xbe539e24	-0.20665795
248	0x3e74b650	0.23897672
249	0x3dc23028	0.09481841
250	0x3e005b70	0.1253488
251	0x3e03a8ed	0.12857409
252	0x3de52b16	0.111898586
253	0x3e16c452	0.14723328
254	0x3d6c033c	0.057620272
255	0x3e460880	0.1933918

sequential_2/dense_9/MatMul f4 [100, 13]
0	0x3c34aaaf	0.011027022
1	0x3d92624b	0.07147654
2	0xbdbcb93b	-0.092150174
3	0x3e809583	0.25114068
4	0x3dfd9273	0.123814486
5	0x3dbfde90	0.09368622
6	0xbe16b480	-0.14717293
7	0x3d59138c	0.052997157
8	0xbe4ec0c6	-0.20190725
9	0xbd47f923	-0.04882158
10	0x3dd73492	0.10508074
11	0x3e78cac6	0.24296102
12	0xbd96e38f	-0.07367622
13	0xbc85baea	-0.01632448
14	0xbea338c3	-0.31879243
15	0xbd620075	-0.055176217
16	0xbde6964d	-0.11259136
17	0x3e0a24d5	0.13490613
18	0x3d1163be	0.035495512
19	0x3e1eb356	0.15498099
20	0xbe6578a6	-0.22409305
21	0xbe9a5cae	-0.30148834
22	0xbe2ec675	-0.17067893
23	0x3edd29c0	0.43195915
24	0xbe341436	-0.17585835
25	0xbe0997a9	-0.1343676
26	0x3dc060a7	0.09393435
27	0x3d832f97	0.064055614
28	0xbd6d155a	-0.05788169
29	0xbdcd0bc6	-0.10012011
30	0xbd571537	-0.052510466
31	0x3e479753	0.1949132
32	0x3d0c75ea	0.03429214
33	0x3e1d6301	0.15369798
34	0x3e4b6af0	0.19865012
35	0x3e2037ba	0.15646258
36	0x3e8944dd	0.2681035
37	0x3d5c203a	0.05374167
38	0xbd46a384	-0.048495784
39	0xbd983314	-0.074316174
40	0x3e3ee93b	0.18643658
41	0x3e1a2d0b	0.15056245
42	0xbdba12c7	-0.09085613
43	0x3da8bb61	0.08238865
44	0x3d22bf03	0.039732944
45	0x3df74a5a	0.12074728
46	0x3d455895	0.04818018
47	0x3e2ec112	0.17065838
48	0x3e0fb591	0.14034106
49	0x3e11fc63	0.14256434
50	0xbde29249	-0.11063058
51	0xbcd94a9c	-0.026524834
52	0xbc5486c7	-0.012971587
53	0x3e060445	0.13087566
54	0x3d0f07d7	0.034919586
55	0x3c5e45fc	0.01356649
56	0x3ba1f992	0.004943081
57	0xbc3e88a0	-0.011629254
58	0xbc5b5daf	-0.013389035
59	0x3e431b17	0.19053303
60	0x3e0b4a57	0.13602577
61	0x3df7e57c	0.121043175
62	0xbe0a96d8	-0.13534105
63	0x3e480475	0.1953295
64	0xbe60b30b	-0.219433
65	0xbe9524ed	-0.29129735
66	0xbd38ae0f	-0.04508787
67	0x3e2f0fc3	0.17095856
68	0xbeb5cae0	-0.35506344
69	0xbd7a5ac0	-0.061121702
70	0xbdb0fc6a	-0.08641894
71	0x3d2d8464	0.042362586
72	0xbb89d7cb	-0.0042066327
73	0x3df316f7	0.118696146
74	0x3db8bf2b	0.090208374
75	0xbd288f45	-0.041152257
76	0xbe7e78d6	-0.24850783
77	0x3e44dc95	0.1922477
78	0x3bc07fbc	0.005874602
79	0x3e03bc57	0.12864815
80	0xbce6cef2	-0.028174851
81	0xbea94c2e	-0.33065933
82	0x3dc8d06d	0.09805379
83	0xbe25b472	-0.16182116
84	0x3da15011	0.078765996
85	0xbe4ee984	-0.20206267
86	0x3e4a2c2d	0.19743414
87	0x3e1a5331	0.15070798
88	0x3e5763f5	0.21034224
89	0x3e7988fc	0.24368662
90	0xbda88edc	-0.08230373
91	0x3e27e301	0.16395189
92	0xbd90da2e	-0.070728645
93	0x3e710080	0.23535347
94	0xbc30bf89	-0.010787853
95	0x3e2f6019	0.17126502
96	0xbe379717	-0.1792873
97	0xbe3a672e	-0.18203422
98	0xbdaf20ad	-0.08551154
99	0x3e969f93	0.2941862
100	0xbd5e1ddb	-0.05422769
101	0xbe48ef75	-0.19622596
102	0xbcb330b3	-0.021873808
103	0xbd19aa12	-0.037515707
104	0x3e3b45d1	0.18288352
105	0x3e00269e	0.12514731
106	0xbe03c26c	-0.12867135
107	0x3da70ac9	0.08156354
108	0x3da98d0c	0.08278856
109	0xbde4bca2	-0.11168791
110	0xbdf4c9bb	-0.119525395
111	0x3df8e535	0.12153093
112	0x3cf18c23	0.029485768
113	0x3d0aa75a	0.033851005
114	0xbdbc5276	-0.09195416
115	0x3e19e950	0.15030408
116	0xbdaa95e3	-0.0832937
117	0xbdc6233a	-0.09674688
118	0x3e96c40a	0.2944644
119	0xbe21b0db	-0.15790121
120	0x3e17015a	0.1474661
121	0xbe2ee68c	-0.17080134
122	0xbd8ec51d	-0.0697119
123	0xbe553062	-0.20819238
124	0xbd95f890	-0.073228
125	0xbcbc2dac	-0.022970997
126	0x3e049fe7	0.12951623
127	0xbe6bb01e	-0.23016402
128	0x3e16af8f	0.14715408
129	0xbb0d8901	-0.0021596553
130	0x3dc40303	0.09570887
131	0x3d37ac48	0.044842035
132	0xbdeeeddc	-0.11666462
133	0x3de8ff3c	0.11376807
134	0x3d261b48	0.04055336
135	0xbde88614	-0.113536984
136	0xbe9c274b	-0.30498728
137	0xbd9cb315	-0.07651345
138	0xbe0ae8eb	-0.13565414
139	0xbe28ae8b	-0.16472833
140	0x3e7fc385	0.24976929
141	0x3dd29629	0.10282547
142	0x3c1f4a02	0.009722235
143	0x3e2b6442	0.16737464
144	0xbd83f255	-0.064427055
145	0xbe7b08aa	-0.24515024
146	0xbda172ac	-0.078832
147	0xbe3d1eda	-0.184688
148	0xbdf7de54	-0.121029526
149	0xbdca6add	-0.09883664
150	0xbe623611	-0.22090937
151	0x3e023008	0.12713635
152	0x3e014b22	0.12626317
153	0xbde50d8d	-0.11184225
154	0xbdc11d1f	-0.094293825
155	0x3d9743d5	0.07385985
156	0x3e671de0	0.2256999
157	0x3e02d278	0.127756
158	0x3dc53138	0.09628528
159	0xbe003037	-0.12518393
160	0xbb353da1	-0.0027655142
161	0xbe207ca9	-0.15672554
162	0xbc9f2c53	-0.019430315
163	0xbd13a655	-0.0360473
164	0xbad9097f	-0.0016558616
165	0xbe0f1992	-0.13974598
166	0xbdf7c535	-0.12098161
167	0x3e4465f8	0.19179523
168	0x3d11f440	0.035633326
169	0x3d4605ba	0.048345305
170	0xbe0cd079	-0.13751401
171	0xbd65613c	-0.056000933
172	0xbe4248ad	-0.18973036
173	0xbd9b9ca7	-0.075982384
174	0xbe5fe8d2	-0.21866158
175	0x3e8bb4c6	0.27286357
176	0x3de8a599	0.1135971
177	0xbea6e999	-0.32600096
178	0xbe63b675	-0.2223757
179	0xbec158d8	-0.37763095
180	0x3d2e050e	0.04248529
181	0xbd392cb6	-0.045208655
182	0x3d81967f	0.06327533
183	0xbde52109	-0.111879416
184	0xbd0c8e9e	-0.034315698
185	0xbd2db038	-0.042404383
186	0x3d2e4b21	0.042552117
187	0x3e7918af	0.24325822
188	0x3c52ebeb	0.01287363
189	0x3e48e083	0.19616894
190	0x3db7016e	0.089358196
191	0xbe63384a	-0.22189441
192	0x3c13ac57	0.009013257
193	0x3d75a1d7	0.059968796
194	0x3e7d9bc1	0.24766447
195	0xbdd858e2	-0.10563828
196	0x3e05b948	0.1305896
197	0x3e0e98c6	0.13925466
198	0xbe0ca8f4	-0.13736326
199	0xbe825bdd	-0.2546071
200	0x3e29afb7	0.16570936
201	0x3e336502	0.17519
202	0xbe1180de	-0.14209315
203	0x3d9ec7a2	0.07752921
204	0xbe70111c	-0.23444027
205	0xbc32a13e	-0.010902701
206	0xbe7de10e	-0.24792883
207	0x3e5e9b05	0.21738823
208	0x3c4fbcea	0.012679318
209	0xbd8d9433	-0.069130324
210	0xbca3f812	-0.02001575
211	0x3e22d979	0.15903272
212	0x3db7c09e	0.08972286
213	0x3e8a17a2	0.26971155
214	0xbd5d2971	-0.0539946
215	0x3c0492e0	0.008091658
216	0xbe2e6b1c	-0.17033046
217	0xbd2bebb5	-0.041972835
218	0x3e11a022	0.14221242
219	0xbd489cba	-0.04897759
220	0x3e164c91	0.14677645
221	0xbe5cccb2	-0.2156246
222	0x3e5c65b0	0.21523166
223	0x3e10b3cf	0.14131092
224	0xbd9a42ae	-0.075322494
225	0x3e50a57d	0.20375629
226	0x3cb9b2a5	0.022668192
227	0xbe14265a	-0.14467755
228	0xbd9a484b	-0.0753332
229	0x3da18978	0.07887548
230	0x3e6431f6	0.22284684
231	0xbdf914d6	-0.12162177
232	0x3d01cb8f	0.03168827
233	0x3df1a36e	0.1179875
234	0x3dce7681	0.100811966
235	0x3e38acb5	0.18034633
236	0x3df90dfa	0.12160869
237	0xbe32d544	-0.17464167
238	0xbd182e49	-0.037153516
239	0x3e83fc83	0.2577859
240	0x3e6316fe	0.2217674
241	0x3e81530e	0.25258678
242	0xbcdb5b44	-0.026776917
243	0x3e51540b	0.20442216
244	0x3d98d327	0.07462149
245	0xbcded431	-0.02720079
246	0x3e7ff793	0.24996786
247	0x3e51101e	0.20416304
248	0xbbc415c4	-0.00598404
249	0x3e8494ef	0.25894877
250	0xbd9feb4e	-0.07808553
251	0xbc3f185b	-0.011663522
252	0xbe7240ef	-0.23657583
253	0xbe55fd7e	-0.20897481
254	0xbca8c4cc	-0.020601653
255	0x3eb4176a	0.35174114

sequential_2/dense_10/MatMul f4 [100, 100]
0	0x3df33160	0.11874652
1	0xbc133e3f	-0.008987009
2	0xbced82c2	-0.028993014
3	0x3e176229	0.14783539
4	0xbd83c32a	-0.06433709
5	0xbe63ea7b	-0.22257416
6	0x3d1d933b	0.038470488
7	0xbdb11998	-0.0864746
8	0xbdb70be3	-0.08937814
9	0xbc6a2276	-0.014290443
10	0x3dbc83f1	0.09204853
11	0x3b951175	0.0045492
12	0xbd2b874a	-0.04187707
13	0xbec0fa53	-0.37690982
14	0x3e363d59	0.1779684
15	0x3dca9295	0.098912396
16	0x3d80388d	0.06260786
17	0xbdb0a7b5	-0.086257376
18	0x3e34650f	0.17616676
19	0x3e00c434	0.12574846
20	0x3dd58072	0.104248896
21	0xbe98d19b	-0.29847416
22	0xbe4b9f06	-0.19884881
23	0xbd25318c	-0.040330455
24	0x3d964f69	0.07339365
25	0x3e962a91	0.2932935
26	0x3ca4984c	0.020092152
27	0x3c06ac07	0.008219725
28	0x3d94e230	0.07269704
29	0x3db692fe	0.08914755
30	0x3df98728	0.12183982
31	0xbe20cf60	-0.15704107
32	0x3be272a9	0.006910641
33	0x3cf815ca	0.030283827
34	0x3d88cd22	0.06679751
35	0xbd6de607	-0.0580807
36	0xbdc602eb	-0.09668525
37	0xbe44fb01	-0.19236375
38	0xbd77e50a	-0.060521163
39	0xbd0197b3	-0.031638812
40	0xbee17a98	-0.44038844
41	0x3d307040	0.0430758
42	0x3eb61f9a	0.35570985
43	0xbd6f5980	-0.058434963
44	0x3d6b7460	0.05748403
45	0x3dd185d1	0.102306016
46	0xbb6dfadc	-0.0036312854
47	0xbeb74a6e	-0.35798973
48	0x3d334901	0.043770794
49	0x3dbd718b	0.09250172
50	0x3c94a0c6	0.018143069
51	0xbe181d1f	-0.14854859
52	0x3ded41c1	0.11584807
53	0x3dcd0abe	0.100118145
54	0xbdaf7c61	-0.08568645
55	0x3dab76d1	0.08372272
56	0xbcf0d910	-0.029400378
57	0xbd250767	-0.040290263
58	0xbd3aa24a	-0.045564927
59	0x3e41d7e3	0.1893001
60	0xbedbe3eb	-0.42947325
61	0xbe95d823	-0.29266462
62	0xbe4d6d92	-0.20061329
63	0xbcd85099	-0.02640562
64	0xbdc1dfec	-0.09466538
65	0x3de251f1	0.11050785
66	0xbdbc20cc	-0.09185943
67	0xbdeec698	-0.116589725
68	0x3e1c54ef	0.15266775
69	0x3e894584	0.2681085
70	0x3e058ec0	0.13042736
71	0x3c86f362	0.016473476
72	0x3e053219	0.13007392
73	0x3e1a4d7d	0.15068622
74	0x3e25c3f1	0.16188027
75	0x3e1ab764	0.1510902
76	0x3de30096	0.11084096
77	0xbe94e00d	-0.29077187
78	0xbd8e6fc3	-0.069549106
79	0xbdc21b49	-0.094778605
80	0x3e9b3595	0.30314317
81	0x3dc59dd6	0.096492454
82	0x3d9cfa60	0.07664943
83	0xbe43221b	-0.19055979
84	0xbd25aa0e	-0.04044538
85	0xbcf4e224	-0.029892989
86	0x3c76b730	0.015058324
87	0x3e45d5a5	0.1931978
88	0x3d454f2d	0.04817121
89	0xbd4e1f7b	-0.05032299
90	0xbd6a7ac7	-0.057245996
91	0x3dde15f9	0.10844035
92	0x3dddd3f7	0.10831445
93	0x3e3a7a51	0.18210723
94	0x3c728281	0.014801622
95	0xbd62aa60	-0.055338264
96	0x3e287d5a	0.16454068
97	0x3c4b3282	0.012402179
98	0x3b95459c	0.004555417
99	0x3e0ea610	0.13930535
100	0xbe204476	-0.15651116
101	0x3dfcc37e	0.12341975
102	0xbdf490c7	-0.119416766
103	0x3d8d1b25	0.06889943
104	0xbe3e51d3	-0.18585901
105	0xbecba407	-0.3977358
106	0xbe32cf89	-0.17461981
107	0xbdb917ae	-0.0903772
108	0xbe05a006	-0.13049325
109	0x3cd2a8fa	0.02571534
110	0xbd9fffd1	-0.07812465
111	0xbe1b5014	-0.15167266
112	0x3cb823fb	0.022478094
113	0xbd777522	-0.06041444
114	0xbbf93d2c	-0.007606169
115	0x3e69b652	0.22823456
116	0x3e08b494	0.13350135
117	0xbd1bd8f2	-0.038048692
118	0x3d15fde3	0.03661908
119	0x3d9e724f	0.077366464
120	0x3e3e6df4	0.18596631
121	0x3cfa1231	0.030526252
122	0xbe024350	-0.1272099
123	0x3d9df87f	0.077134125
124	0xbc7eb63a	-0.015546376
125	0x3ccaafe8	0.024742082
126	0x3e29e8bc	0.16592687
127	0x3e357512	0.1772044
128	0x3e095fb7	0.13415419
129	0x3e0996e1	0.13436462
130	0x3d85d46e	0.06534658
131	0xbe21aab8	-0.1578778
132	0xbdd2cb25	-0.10292653
133	0xbe055391	-0.1302016
134	0x3e738fb8	0.23785293
135	0x3d985598	0.07438201
136	0xbde4b9ef	-0.111682765
137	0xbe86e7fa	-0.2634886
138	0x3e24dbaa	0.1609942
139	0xbd0d5d66	-0.0345129
140	0xbe98c0c2	-0.29834563
141	0xbc8e1d00	-0.017347813
142	0x3e42f6e0	0.19039488
143	0xbe5c597a	-0.21518508
144	0xba91cce5	-0.0011123685
145	0x3dba2646	0.09089331
146	0x3e4802b2	0.19532278
147	0xbdc5a813	-0.09651198
148	0x3e02364c	0.12716025
149	0x3d377982	0.044793613
150	0xbe137151	-0.14398696
151	0x3d9e741c	0.0773699
152	0x3e795414	0.2434848
153	0x3d6de317	0.058077898
154	0x3e0937d2	0.134002
155	0x3e256336	0.16151127
156	0xbd86b6af	-0.06577813
157	0x3e11b55b	0.14229338
158	0xbd0408cb	-0.032234948
159	0x3e28011d	0.16406675
160	0xbeea9edd	-0.45824328
161	0xbe56b8ff	-0.20969008
162	0x3c8b63fa	0.017015446
163	0xbe435e2e	-0.19078895
164	0x3e277951	0.16354872
165	0x3e8217b3	0.25408706
166	0xbdd66869	-0.104691334
167	0x3df95505	0.12174419
168	0x3c6a6be8	0.014307953
169	0x3e6e7fef	0.2329099
170	0xbd69aa6a	-0.057047285
171	0x3d13ca85	0.03608181
172	0xbdca3361	-0.09873081
173	0x3e4d5049	0.20050158
174	0x3e648e56	0.22319922
175	0x3e6afb91	0.22947527
176	0x3d35070b	0.04419617
177	0xbe8cdf2f	-0.27514026
178	0x3dde4349	0.108526774
179	0x3ca4cfcb	0.020118615
180	0x3eb19b19	0.34688643
181	0x3e3f1156	0.18658957
182	0xbe0b703d	-0.13617034
183	0xbef1cd06	-0.47226733
184	0x3e40825d	0.1879973
185	0xbe2c1343	-0.16804223
186	0xbc05671b	-0.008142258
187	0xbd2fedda	-0.042951442
188	0x3d8f6bc1	0.07002974
189	0x3e3a83dc	0.18214363
190	0xbc083a50	-0.008314684
191	0xbdb1ffc0	-0.086913586
192	0x3de7d1ac	0.113192886
193	0xbdd5c64c	-0.10438213
194	0x3e298c9b	0.16557543
195	0x3e09f141	0.13470937
196	0xbde2ac0e	-0.11067973
197	0x3d98a487	0.07453256
198	0x3c4354a1	0.011922033
199	0xbd6147dd	-0.055000175
200	0x3da1df73	0.07903948
201	0xbe0f6f88	-0.1400739
202	0x3ddc4e38	0.107571065
203	0xbdc72de7	-0.09725552
204	0x3d82a7d0	0.06379664
205	0x3e26d0c4	0.16290575
206	0xbcf164bc	-0.02946698
207	0x3d48ef03	0.049056064
208	0xbde6795e	-0.11253618
209	0x3dad50bd	0.08462665
210	0xbcc4a017	-0.024002118
211	0xbe09ce4c	-0.13457602
212	0xbdf3cc10	-0.11904156
213	0x3dbdb0ab	0.09262212
214	0x3dd0cc0c	0.10195169
215	0x3d838128	0.06421119
216	0x3cfff8f4	0.03124664
217	0xbd09c3e3	-0.033634078
218	0xbd1a45be	-0.037664168
219	0x3cfaa400	0.03059578
220	0xbdaf7d13	-0.08568778
221	0xbdf621d8	-0.12018174
222	0xbdbdb7d9	-0.09263582
223	0x3dd29a15	0.10283295
224	0xbe33fd89	-0.17577185
225	0x3d2ac9fe	0.04169654
226	0xbe3b63f1	-0.18299843
227	0xbde51ab1	-0.111867316
228	0x3e1c666e	0.15273449
229	0xbe4c6420	-0.1996007
230	0xbde357f0	-0.11100757
231	0x3d859030	0.06521642
232	0x3df2efcf	0.11862146
233	0xbdd02950	-0.1016413
234	0xbd0694e6	-0.032856844
235	0xbda09a89	-0.07841975
236	0xbdf7fdbe	-0.12108944
237	0xbe6b427c	-0.2297458
238	0x3e216da2	0.15764478
239	0x3db71aa1	0.08940626
240	0x3e046f1c	0.1293301
241	0xbe24c618	-0.16091192
242	0xbd71fa9e	-0.059076898
243	0x3cc4ad86	0.024008524
244	0x3c067340	0.008206189
245	0x3d3a68fe	0.045510285
246	0x3cf2e194	0.02964858
247	0x3e99be69	0.30028084
248	0xbdb022c1	-0.08600379
249	0x3d81d515	0.0633947
250	0x3dd517a4	0.104049
251	0xbc76bf86	-0.015060311
252	0xbdcc5346	-0.09976821
253	0xbd378b3e	-0.044810526
254	0x3ce79e49	0.028273718
255	0x3e5d240b	0.2159578

sequential_2/dense_11/MatMul f4 [1, 100]
0	0x3e843401	0.25820926
1	0x3ecd58b4	0.40106738
2	0xbdb14675	-0.08656017
3	0x3e339464	0.17537075
4	0x3e457d7d	0.19286151
5	0xbe47e92d	-0.19522543
6	0x3ec9b4ae	0.3939566
7	0xbe5b3687	-0.2140752
8	0x3e2fc03a	0.17163172
9	0xbdea2382	-0.11432554
10	0x3e4b3ddc	0.19847816
11	0xbda82f24	-0.08212116
12	0xbdb4635d	-0.088080145
13	0x3e5f7500	0.21821976
14	0x3e90ae58	0.28258014
15	0xbe1f38e4	-0.15549046
16	0xbded3bdd	-0.11583684
17	0x3e82b187	0.25526068
18	0xbdd53ab9	-0.10411591
19	0x3ea6c3c5	0.32571235
20	0x3def4660	0.11683345
21	0xbee03ab5	-0.4379479
22	0xbe4da32b	-0.20081775
23	0x3e3ebef0	0.18627524
24	0x3e39eaff	0.1815605
25	0x3de21875	0.11039821
26	0xbe096134	-0.13415986
27	0x3eb1dc2e	0.34738296
28	0xbd1ad416	-0.037799917
29	0x3f02a5e0	0.51034355
30	0x3e9a9fcb	0.30200037
31	0x3e80f07c	0.25183475
32	0xbe517b1e	-0.20457122
33	0xbe6a1857	-0.22860847
34	0xbe858861	-0.2608061
35	0x3e76e951	0.2411244
36	0xbebb8bca	-0.36630088
37	0x3e967068	0.29382634
38	0x3e0528cd	0.13003846
39	0xbeca4e02	-0.3951264
40	0x3e972dbd	0.29527083
41	0xbe7dab64	-0.24772412
42	0xbe81b690	-0.25334597
43	0x3e7de84a	0.24795642
44	0x3e8e0511	0.2773824
45	0xbe441d7a	-0.1915187
46	0xbd9b70f7	-0.07589906
47	0x3e8327df	0.25616357
48	0x3ea735ab	0.32658133
49	0x3e85caff	0.26131436
50	0xbdbd1bbe	-0.09233807
51	0xbd0a5894	-0.03377588
52	0xbefb811d	-0.49121943
53	0x3e836887	0.25665686
54	0xbde8acae	-0.11361061
55	0x3eb8fa46	0.36128443
56	0x3e375701	0.17904283
57	0xbe8c4bc6	-0.2740156
58	0xbe77357f	-0.24141501
59	0x3e535c31	0.20640637
60	0xbec924d4	-0.3928591
61	0xbe3d2fd4	-0.18475276
62	0xba075eb5	-0.0005163954
63	0xbe52c429	-0.20582642
64	0x3e8b6705	0.27227035
65	0x3e7d8d09	0.24760832
66	0xbe1eaf9e	-0.1549668
67	0x3eaeab4f	0.34115073
68	0x3d568581	0.052373413
69	0xbe9ad110	-0.30237627
70	0x3e829f94	0.25512373
71	0xbe1239fb	-0.1427993
72	0x3e109cc4	0.14122301
73	0xbf006bb2	-0.5016433
74	0xbe950976	-0.2910878
75	0x3ea46314	0.3210684
76	0x3e7034ad	0.23457594
77	0x3df9c237	0.12195247
78	0x3e829e1b	0.2551125
79	0xbe1e2900	-0.15445328
80	0x3e86423a	0.26222402
81	0x3e269207	0.16266643
82	0x3e95335c	0.29140747
83	0xbe2d691c	-0.16934627
84	0xbea889db	-0.32917675
85	0xbe0c22cb	-0.13685147
86	0x3e97d284	0.29652798
87	0x3ea4afa2	0.32165247
88	0x3e07e228	0.13269866
89	0x3e5b9f1e	0.21447417
90	0x3e99c95c	0.30036438
91	0xbd86d22e	-0.06583057
92	0x3de49211	0.111606725
93	0xbdcd270e	-0.10017215
94	0x3e3a06a6	0.18166599
95	0xbec03f94	-0.37548506
96	0xbe111404	-0.14167792
97	0x3eb6f58b	0.3573421
98	0x3e5e2556	0.2169393
99	0x3ea4bb6e	0.32174248
